{"modelTopology": {"model_config": {"class_name": "Model", "config": {"name": "model_1", "input_layers": [["input_1", 0, 0]], "output_layers": [["dense_1", 0, 0]], "layers": [{"name": "input_1", "class_name": "InputLayer", "config": {"name": "input_1", "batch_input_shape": [null, 256, 256, 3], "dtype": "float32", "sparse": false}, "inbound_nodes": []}, {"name": "conv1_pad", "class_name": "ZeroPadding2D", "config": {"name": "conv1_pad", "padding": [[3, 3], [3, 3]], "data_format": "channels_last", "trainable": true}, "inbound_nodes": [[["input_1", 0, 0, {}]]]}, {"name": "conv1", "class_name": "Conv2D", "config": {"filters": 64, "bias_regularizer": null, "data_format": "channels_last", "kernel_regularizer": null, "use_bias": true, "name": "conv1", "padding": "valid", "bias_constraint": null, "strides": [2, 2], "trainable": true, "kernel_constraint": null, "activity_regularizer": null, "kernel_size": [7, 7], "dilation_rate": [1, 1], "kernel_initializer": {"class_name": "VarianceScaling", "config": {"scale": 1.0, "distribution": "uniform", "mode": "fan_avg", "seed": null}}, "bias_initializer": {"class_name": "Zeros", "config": {}}, "activation": "linear"}, "inbound_nodes": [[["conv1_pad", 0, 0, {}]]]}, {"name": "bn_conv1", "class_name": "BatchNormalization", "config": {"momentum": 0.99, "gamma_regularizer": null, "axis": 3, "name": "bn_conv1", "scale": true, "moving_mean_initializer": {"class_name": "Zeros", "config": {}}, "trainable": true, "beta_initializer": {"class_name": "Zeros", "config": {}}, "moving_variance_initializer": {"class_name": "Ones", "config": {}}, "gamma_initializer": {"class_name": "Ones", "config": {}}, "epsilon": 0.001, "gamma_constraint": null, "beta_constraint": null, "center": true, "beta_regularizer": null}, "inbound_nodes": [[["conv1", 0, 0, {}]]]}, {"name": "activation_1", "class_name": "Activation", "config": {"name": "activation_1", "activation": "relu", "trainable": true}, "inbound_nodes": [[["bn_conv1", 0, 0, {}]]]}, {"name": "max_pooling2d_1", "class_name": "MaxPooling2D", "config": {"name": "max_pooling2d_1", "padding": "valid", "data_format": "channels_last", "strides": [2, 2], "trainable": true, "pool_size": [3, 3]}, "inbound_nodes": [[["activation_1", 0, 0, {}]]]}, {"name": "res2a_branch2a", "class_name": "Conv2D", "config": {"filters": 64, "bias_regularizer": null, "data_format": "channels_last", "kernel_regularizer": null, "use_bias": true, "name": "res2a_branch2a", "padding": "valid", "bias_constraint": null, "strides": [1, 1], "trainable": true, "kernel_constraint": null, "activity_regularizer": null, "kernel_size": [1, 1], "dilation_rate": [1, 1], "kernel_initializer": {"class_name": "VarianceScaling", "config": {"scale": 1.0, "distribution": "uniform", "mode": "fan_avg", "seed": null}}, "bias_initializer": {"class_name": "Zeros", "config": {}}, "activation": "linear"}, "inbound_nodes": [[["max_pooling2d_1", 0, 0, {}]]]}, {"name": "bn2a_branch2a", "class_name": "BatchNormalization", "config": {"momentum": 0.99, "gamma_regularizer": null, "axis": 3, "name": "bn2a_branch2a", "scale": true, "moving_mean_initializer": {"class_name": "Zeros", "config": {}}, "trainable": true, "beta_initializer": {"class_name": "Zeros", "config": {}}, "moving_variance_initializer": {"class_name": "Ones", "config": {}}, "gamma_initializer": {"class_name": "Ones", "config": {}}, "epsilon": 0.001, "gamma_constraint": null, "beta_constraint": null, "center": true, "beta_regularizer": null}, "inbound_nodes": [[["res2a_branch2a", 0, 0, {}]]]}, {"name": "activation_2", "class_name": "Activation", "config": {"name": "activation_2", "activation": "relu", "trainable": true}, "inbound_nodes": [[["bn2a_branch2a", 0, 0, {}]]]}, {"name": "res2a_branch2b", "class_name": "Conv2D", "config": {"filters": 64, "bias_regularizer": null, "data_format": "channels_last", "kernel_regularizer": null, "use_bias": true, "name": "res2a_branch2b", "padding": "same", "bias_constraint": null, "strides": [1, 1], "trainable": true, "kernel_constraint": null, "activity_regularizer": null, "kernel_size": [3, 3], "dilation_rate": [1, 1], "kernel_initializer": {"class_name": "VarianceScaling", "config": {"scale": 1.0, "distribution": "uniform", "mode": "fan_avg", "seed": null}}, "bias_initializer": {"class_name": "Zeros", "config": {}}, "activation": "linear"}, "inbound_nodes": [[["activation_2", 0, 0, {}]]]}, {"name": "bn2a_branch2b", "class_name": "BatchNormalization", "config": {"momentum": 0.99, "gamma_regularizer": null, "axis": 3, "name": "bn2a_branch2b", "scale": true, "moving_mean_initializer": {"class_name": "Zeros", "config": {}}, "trainable": true, "beta_initializer": {"class_name": "Zeros", "config": {}}, "moving_variance_initializer": {"class_name": "Ones", "config": {}}, "gamma_initializer": {"class_name": "Ones", "config": {}}, "epsilon": 0.001, "gamma_constraint": null, "beta_constraint": null, "center": true, "beta_regularizer": null}, "inbound_nodes": [[["res2a_branch2b", 0, 0, {}]]]}, {"name": "activation_3", "class_name": "Activation", "config": {"name": "activation_3", "activation": "relu", "trainable": true}, "inbound_nodes": [[["bn2a_branch2b", 0, 0, {}]]]}, {"name": "res2a_branch2c", "class_name": "Conv2D", "config": {"filters": 256, "bias_regularizer": null, "data_format": "channels_last", "kernel_regularizer": null, "use_bias": true, "name": "res2a_branch2c", "padding": "valid", "bias_constraint": null, "strides": [1, 1], "trainable": true, "kernel_constraint": null, "activity_regularizer": null, "kernel_size": [1, 1], "dilation_rate": [1, 1], "kernel_initializer": {"class_name": "VarianceScaling", "config": {"scale": 1.0, "distribution": "uniform", "mode": "fan_avg", "seed": null}}, "bias_initializer": {"class_name": "Zeros", "config": {}}, "activation": "linear"}, "inbound_nodes": [[["activation_3", 0, 0, {}]]]}, {"name": "res2a_branch1", "class_name": "Conv2D", "config": {"filters": 256, "bias_regularizer": null, "data_format": "channels_last", "kernel_regularizer": null, "use_bias": true, "name": "res2a_branch1", "padding": "valid", "bias_constraint": null, "strides": [1, 1], "trainable": true, "kernel_constraint": null, "activity_regularizer": null, "kernel_size": [1, 1], "dilation_rate": [1, 1], "kernel_initializer": {"class_name": "VarianceScaling", "config": {"scale": 1.0, "distribution": "uniform", "mode": "fan_avg", "seed": null}}, "bias_initializer": {"class_name": "Zeros", "config": {}}, "activation": "linear"}, "inbound_nodes": [[["max_pooling2d_1", 0, 0, {}]]]}, {"name": "bn2a_branch2c", "class_name": "BatchNormalization", "config": {"momentum": 0.99, "gamma_regularizer": null, "axis": 3, "name": "bn2a_branch2c", "scale": true, "moving_mean_initializer": {"class_name": "Zeros", "config": {}}, "trainable": true, "beta_initializer": {"class_name": "Zeros", "config": {}}, "moving_variance_initializer": {"class_name": "Ones", "config": {}}, "gamma_initializer": {"class_name": "Ones", "config": {}}, "epsilon": 0.001, "gamma_constraint": null, "beta_constraint": null, "center": true, "beta_regularizer": null}, "inbound_nodes": [[["res2a_branch2c", 0, 0, {}]]]}, {"name": "bn2a_branch1", "class_name": "BatchNormalization", "config": {"momentum": 0.99, "gamma_regularizer": null, "axis": 3, "name": "bn2a_branch1", "scale": true, "moving_mean_initializer": {"class_name": "Zeros", "config": {}}, "trainable": true, "beta_initializer": {"class_name": "Zeros", "config": {}}, "moving_variance_initializer": {"class_name": "Ones", "config": {}}, "gamma_initializer": {"class_name": "Ones", "config": {}}, "epsilon": 0.001, "gamma_constraint": null, "beta_constraint": null, "center": true, "beta_regularizer": null}, "inbound_nodes": [[["res2a_branch1", 0, 0, {}]]]}, {"name": "add_1", "class_name": "Add", "config": {"name": "add_1", "trainable": true}, "inbound_nodes": [[["bn2a_branch2c", 0, 0, {}], ["bn2a_branch1", 0, 0, {}]]]}, {"name": "activation_4", "class_name": "Activation", "config": {"name": "activation_4", "activation": "relu", "trainable": true}, "inbound_nodes": [[["add_1", 0, 0, {}]]]}, {"name": "res2b_branch2a", "class_name": "Conv2D", "config": {"filters": 64, "bias_regularizer": null, "data_format": "channels_last", "kernel_regularizer": null, "use_bias": true, "name": "res2b_branch2a", "padding": "valid", "bias_constraint": null, "strides": [1, 1], "trainable": true, "kernel_constraint": null, "activity_regularizer": null, "kernel_size": [1, 1], "dilation_rate": [1, 1], "kernel_initializer": {"class_name": "VarianceScaling", "config": {"scale": 1.0, "distribution": "uniform", "mode": "fan_avg", "seed": null}}, "bias_initializer": {"class_name": "Zeros", "config": {}}, "activation": "linear"}, "inbound_nodes": [[["activation_4", 0, 0, {}]]]}, {"name": "bn2b_branch2a", "class_name": "BatchNormalization", "config": {"momentum": 0.99, "gamma_regularizer": null, "axis": 3, "name": "bn2b_branch2a", "scale": true, "moving_mean_initializer": {"class_name": "Zeros", "config": {}}, "trainable": true, "beta_initializer": {"class_name": "Zeros", "config": {}}, "moving_variance_initializer": {"class_name": "Ones", "config": {}}, "gamma_initializer": {"class_name": "Ones", "config": {}}, "epsilon": 0.001, "gamma_constraint": null, "beta_constraint": null, "center": true, "beta_regularizer": null}, "inbound_nodes": [[["res2b_branch2a", 0, 0, {}]]]}, {"name": "activation_5", "class_name": "Activation", "config": {"name": "activation_5", "activation": "relu", "trainable": true}, "inbound_nodes": [[["bn2b_branch2a", 0, 0, {}]]]}, {"name": "res2b_branch2b", "class_name": "Conv2D", "config": {"filters": 64, "bias_regularizer": null, "data_format": "channels_last", "kernel_regularizer": null, "use_bias": true, "name": "res2b_branch2b", "padding": "same", "bias_constraint": null, "strides": [1, 1], "trainable": true, "kernel_constraint": null, "activity_regularizer": null, "kernel_size": [3, 3], "dilation_rate": [1, 1], "kernel_initializer": {"class_name": "VarianceScaling", "config": {"scale": 1.0, "distribution": "uniform", "mode": "fan_avg", "seed": null}}, "bias_initializer": {"class_name": "Zeros", "config": {}}, "activation": "linear"}, "inbound_nodes": [[["activation_5", 0, 0, {}]]]}, {"name": "bn2b_branch2b", "class_name": "BatchNormalization", "config": {"momentum": 0.99, "gamma_regularizer": null, "axis": 3, "name": "bn2b_branch2b", "scale": true, "moving_mean_initializer": {"class_name": "Zeros", "config": {}}, "trainable": true, "beta_initializer": {"class_name": "Zeros", "config": {}}, "moving_variance_initializer": {"class_name": "Ones", "config": {}}, "gamma_initializer": {"class_name": "Ones", "config": {}}, "epsilon": 0.001, "gamma_constraint": null, "beta_constraint": null, "center": true, "beta_regularizer": null}, "inbound_nodes": [[["res2b_branch2b", 0, 0, {}]]]}, {"name": "activation_6", "class_name": "Activation", "config": {"name": "activation_6", "activation": "relu", "trainable": true}, "inbound_nodes": [[["bn2b_branch2b", 0, 0, {}]]]}, {"name": "res2b_branch2c", "class_name": "Conv2D", "config": {"filters": 256, "bias_regularizer": null, "data_format": "channels_last", "kernel_regularizer": null, "use_bias": true, "name": "res2b_branch2c", "padding": "valid", "bias_constraint": null, "strides": [1, 1], "trainable": true, "kernel_constraint": null, "activity_regularizer": null, "kernel_size": [1, 1], "dilation_rate": [1, 1], "kernel_initializer": {"class_name": "VarianceScaling", "config": {"scale": 1.0, "distribution": "uniform", "mode": "fan_avg", "seed": null}}, "bias_initializer": {"class_name": "Zeros", "config": {}}, "activation": "linear"}, "inbound_nodes": [[["activation_6", 0, 0, {}]]]}, {"name": "bn2b_branch2c", "class_name": "BatchNormalization", "config": {"momentum": 0.99, "gamma_regularizer": null, "axis": 3, "name": "bn2b_branch2c", "scale": true, "moving_mean_initializer": {"class_name": "Zeros", "config": {}}, "trainable": true, "beta_initializer": {"class_name": "Zeros", "config": {}}, "moving_variance_initializer": {"class_name": "Ones", "config": {}}, "gamma_initializer": {"class_name": "Ones", "config": {}}, "epsilon": 0.001, "gamma_constraint": null, "beta_constraint": null, "center": true, "beta_regularizer": null}, "inbound_nodes": [[["res2b_branch2c", 0, 0, {}]]]}, {"name": "add_2", "class_name": "Add", "config": {"name": "add_2", "trainable": true}, "inbound_nodes": [[["bn2b_branch2c", 0, 0, {}], ["activation_4", 0, 0, {}]]]}, {"name": "activation_7", "class_name": "Activation", "config": {"name": "activation_7", "activation": "relu", "trainable": true}, "inbound_nodes": [[["add_2", 0, 0, {}]]]}, {"name": "res2c_branch2a", "class_name": "Conv2D", "config": {"filters": 64, "bias_regularizer": null, "data_format": "channels_last", "kernel_regularizer": null, "use_bias": true, "name": "res2c_branch2a", "padding": "valid", "bias_constraint": null, "strides": [1, 1], "trainable": true, "kernel_constraint": null, "activity_regularizer": null, "kernel_size": [1, 1], "dilation_rate": [1, 1], "kernel_initializer": {"class_name": "VarianceScaling", "config": {"scale": 1.0, "distribution": "uniform", "mode": "fan_avg", "seed": null}}, "bias_initializer": {"class_name": "Zeros", "config": {}}, "activation": "linear"}, "inbound_nodes": [[["activation_7", 0, 0, {}]]]}, {"name": "bn2c_branch2a", "class_name": "BatchNormalization", "config": {"momentum": 0.99, "gamma_regularizer": null, "axis": 3, "name": "bn2c_branch2a", "scale": true, "moving_mean_initializer": {"class_name": "Zeros", "config": {}}, "trainable": true, "beta_initializer": {"class_name": "Zeros", "config": {}}, "moving_variance_initializer": {"class_name": "Ones", "config": {}}, "gamma_initializer": {"class_name": "Ones", "config": {}}, "epsilon": 0.001, "gamma_constraint": null, "beta_constraint": null, "center": true, "beta_regularizer": null}, "inbound_nodes": [[["res2c_branch2a", 0, 0, {}]]]}, {"name": "activation_8", "class_name": "Activation", "config": {"name": "activation_8", "activation": "relu", "trainable": true}, "inbound_nodes": [[["bn2c_branch2a", 0, 0, {}]]]}, {"name": "res2c_branch2b", "class_name": "Conv2D", "config": {"filters": 64, "bias_regularizer": null, "data_format": "channels_last", "kernel_regularizer": null, "use_bias": true, "name": "res2c_branch2b", "padding": "same", "bias_constraint": null, "strides": [1, 1], "trainable": true, "kernel_constraint": null, "activity_regularizer": null, "kernel_size": [3, 3], "dilation_rate": [1, 1], "kernel_initializer": {"class_name": "VarianceScaling", "config": {"scale": 1.0, "distribution": "uniform", "mode": "fan_avg", "seed": null}}, "bias_initializer": {"class_name": "Zeros", "config": {}}, "activation": "linear"}, "inbound_nodes": [[["activation_8", 0, 0, {}]]]}, {"name": "bn2c_branch2b", "class_name": "BatchNormalization", "config": {"momentum": 0.99, "gamma_regularizer": null, "axis": 3, "name": "bn2c_branch2b", "scale": true, "moving_mean_initializer": {"class_name": "Zeros", "config": {}}, "trainable": true, "beta_initializer": {"class_name": "Zeros", "config": {}}, "moving_variance_initializer": {"class_name": "Ones", "config": {}}, "gamma_initializer": {"class_name": "Ones", "config": {}}, "epsilon": 0.001, "gamma_constraint": null, "beta_constraint": null, "center": true, "beta_regularizer": null}, "inbound_nodes": [[["res2c_branch2b", 0, 0, {}]]]}, {"name": "activation_9", "class_name": "Activation", "config": {"name": "activation_9", "activation": "relu", "trainable": true}, "inbound_nodes": [[["bn2c_branch2b", 0, 0, {}]]]}, {"name": "res2c_branch2c", "class_name": "Conv2D", "config": {"filters": 256, "bias_regularizer": null, "data_format": "channels_last", "kernel_regularizer": null, "use_bias": true, "name": "res2c_branch2c", "padding": "valid", "bias_constraint": null, "strides": [1, 1], "trainable": true, "kernel_constraint": null, "activity_regularizer": null, "kernel_size": [1, 1], "dilation_rate": [1, 1], "kernel_initializer": {"class_name": "VarianceScaling", "config": {"scale": 1.0, "distribution": "uniform", "mode": "fan_avg", "seed": null}}, "bias_initializer": {"class_name": "Zeros", "config": {}}, "activation": "linear"}, "inbound_nodes": [[["activation_9", 0, 0, {}]]]}, {"name": "bn2c_branch2c", "class_name": "BatchNormalization", "config": {"momentum": 0.99, "gamma_regularizer": null, "axis": 3, "name": "bn2c_branch2c", "scale": true, "moving_mean_initializer": {"class_name": "Zeros", "config": {}}, "trainable": true, "beta_initializer": {"class_name": "Zeros", "config": {}}, "moving_variance_initializer": {"class_name": "Ones", "config": {}}, "gamma_initializer": {"class_name": "Ones", "config": {}}, "epsilon": 0.001, "gamma_constraint": null, "beta_constraint": null, "center": true, "beta_regularizer": null}, "inbound_nodes": [[["res2c_branch2c", 0, 0, {}]]]}, {"name": "add_3", "class_name": "Add", "config": {"name": "add_3", "trainable": true}, "inbound_nodes": [[["bn2c_branch2c", 0, 0, {}], ["activation_7", 0, 0, {}]]]}, {"name": "activation_10", "class_name": "Activation", "config": {"name": "activation_10", "activation": "relu", "trainable": true}, "inbound_nodes": [[["add_3", 0, 0, {}]]]}, {"name": "res3a_branch2a", "class_name": "Conv2D", "config": {"filters": 128, "bias_regularizer": null, "data_format": "channels_last", "kernel_regularizer": null, "use_bias": true, "name": "res3a_branch2a", "padding": "valid", "bias_constraint": null, "strides": [2, 2], "trainable": true, "kernel_constraint": null, "activity_regularizer": null, "kernel_size": [1, 1], "dilation_rate": [1, 1], "kernel_initializer": {"class_name": "VarianceScaling", "config": {"scale": 1.0, "distribution": "uniform", "mode": "fan_avg", "seed": null}}, "bias_initializer": {"class_name": "Zeros", "config": {}}, "activation": "linear"}, "inbound_nodes": [[["activation_10", 0, 0, {}]]]}, {"name": "bn3a_branch2a", "class_name": "BatchNormalization", "config": {"momentum": 0.99, "gamma_regularizer": null, "axis": 3, "name": "bn3a_branch2a", "scale": true, "moving_mean_initializer": {"class_name": "Zeros", "config": {}}, "trainable": true, "beta_initializer": {"class_name": "Zeros", "config": {}}, "moving_variance_initializer": {"class_name": "Ones", "config": {}}, "gamma_initializer": {"class_name": "Ones", "config": {}}, "epsilon": 0.001, "gamma_constraint": null, "beta_constraint": null, "center": true, "beta_regularizer": null}, "inbound_nodes": [[["res3a_branch2a", 0, 0, {}]]]}, {"name": "activation_11", "class_name": "Activation", "config": {"name": "activation_11", "activation": "relu", "trainable": true}, "inbound_nodes": [[["bn3a_branch2a", 0, 0, {}]]]}, {"name": "res3a_branch2b", "class_name": "Conv2D", "config": {"filters": 128, "bias_regularizer": null, "data_format": "channels_last", "kernel_regularizer": null, "use_bias": true, "name": "res3a_branch2b", "padding": "same", "bias_constraint": null, "strides": [1, 1], "trainable": true, "kernel_constraint": null, "activity_regularizer": null, "kernel_size": [3, 3], "dilation_rate": [1, 1], "kernel_initializer": {"class_name": "VarianceScaling", "config": {"scale": 1.0, "distribution": "uniform", "mode": "fan_avg", "seed": null}}, "bias_initializer": {"class_name": "Zeros", "config": {}}, "activation": "linear"}, "inbound_nodes": [[["activation_11", 0, 0, {}]]]}, {"name": "bn3a_branch2b", "class_name": "BatchNormalization", "config": {"momentum": 0.99, "gamma_regularizer": null, "axis": 3, "name": "bn3a_branch2b", "scale": true, "moving_mean_initializer": {"class_name": "Zeros", "config": {}}, "trainable": true, "beta_initializer": {"class_name": "Zeros", "config": {}}, "moving_variance_initializer": {"class_name": "Ones", "config": {}}, "gamma_initializer": {"class_name": "Ones", "config": {}}, "epsilon": 0.001, "gamma_constraint": null, "beta_constraint": null, "center": true, "beta_regularizer": null}, "inbound_nodes": [[["res3a_branch2b", 0, 0, {}]]]}, {"name": "activation_12", "class_name": "Activation", "config": {"name": "activation_12", "activation": "relu", "trainable": true}, "inbound_nodes": [[["bn3a_branch2b", 0, 0, {}]]]}, {"name": "res3a_branch2c", "class_name": "Conv2D", "config": {"filters": 512, "bias_regularizer": null, "data_format": "channels_last", "kernel_regularizer": null, "use_bias": true, "name": "res3a_branch2c", "padding": "valid", "bias_constraint": null, "strides": [1, 1], "trainable": true, "kernel_constraint": null, "activity_regularizer": null, "kernel_size": [1, 1], "dilation_rate": [1, 1], "kernel_initializer": {"class_name": "VarianceScaling", "config": {"scale": 1.0, "distribution": "uniform", "mode": "fan_avg", "seed": null}}, "bias_initializer": {"class_name": "Zeros", "config": {}}, "activation": "linear"}, "inbound_nodes": [[["activation_12", 0, 0, {}]]]}, {"name": "res3a_branch1", "class_name": "Conv2D", "config": {"filters": 512, "bias_regularizer": null, "data_format": "channels_last", "kernel_regularizer": null, "use_bias": true, "name": "res3a_branch1", "padding": "valid", "bias_constraint": null, "strides": [2, 2], "trainable": true, "kernel_constraint": null, "activity_regularizer": null, "kernel_size": [1, 1], "dilation_rate": [1, 1], "kernel_initializer": {"class_name": "VarianceScaling", "config": {"scale": 1.0, "distribution": "uniform", "mode": "fan_avg", "seed": null}}, "bias_initializer": {"class_name": "Zeros", "config": {}}, "activation": "linear"}, "inbound_nodes": [[["activation_10", 0, 0, {}]]]}, {"name": "bn3a_branch2c", "class_name": "BatchNormalization", "config": {"momentum": 0.99, "gamma_regularizer": null, "axis": 3, "name": "bn3a_branch2c", "scale": true, "moving_mean_initializer": {"class_name": "Zeros", "config": {}}, "trainable": true, "beta_initializer": {"class_name": "Zeros", "config": {}}, "moving_variance_initializer": {"class_name": "Ones", "config": {}}, "gamma_initializer": {"class_name": "Ones", "config": {}}, "epsilon": 0.001, "gamma_constraint": null, "beta_constraint": null, "center": true, "beta_regularizer": null}, "inbound_nodes": [[["res3a_branch2c", 0, 0, {}]]]}, {"name": "bn3a_branch1", "class_name": "BatchNormalization", "config": {"momentum": 0.99, "gamma_regularizer": null, "axis": 3, "name": "bn3a_branch1", "scale": true, "moving_mean_initializer": {"class_name": "Zeros", "config": {}}, "trainable": true, "beta_initializer": {"class_name": "Zeros", "config": {}}, "moving_variance_initializer": {"class_name": "Ones", "config": {}}, "gamma_initializer": {"class_name": "Ones", "config": {}}, "epsilon": 0.001, "gamma_constraint": null, "beta_constraint": null, "center": true, "beta_regularizer": null}, "inbound_nodes": [[["res3a_branch1", 0, 0, {}]]]}, {"name": "add_4", "class_name": "Add", "config": {"name": "add_4", "trainable": true}, "inbound_nodes": [[["bn3a_branch2c", 0, 0, {}], ["bn3a_branch1", 0, 0, {}]]]}, {"name": "activation_13", "class_name": "Activation", "config": {"name": "activation_13", "activation": "relu", "trainable": true}, "inbound_nodes": [[["add_4", 0, 0, {}]]]}, {"name": "res3b_branch2a", "class_name": "Conv2D", "config": {"filters": 128, "bias_regularizer": null, "data_format": "channels_last", "kernel_regularizer": null, "use_bias": true, "name": "res3b_branch2a", "padding": "valid", "bias_constraint": null, "strides": [1, 1], "trainable": true, "kernel_constraint": null, "activity_regularizer": null, "kernel_size": [1, 1], "dilation_rate": [1, 1], "kernel_initializer": {"class_name": "VarianceScaling", "config": {"scale": 1.0, "distribution": "uniform", "mode": "fan_avg", "seed": null}}, "bias_initializer": {"class_name": "Zeros", "config": {}}, "activation": "linear"}, "inbound_nodes": [[["activation_13", 0, 0, {}]]]}, {"name": "bn3b_branch2a", "class_name": "BatchNormalization", "config": {"momentum": 0.99, "gamma_regularizer": null, "axis": 3, "name": "bn3b_branch2a", "scale": true, "moving_mean_initializer": {"class_name": "Zeros", "config": {}}, "trainable": true, "beta_initializer": {"class_name": "Zeros", "config": {}}, "moving_variance_initializer": {"class_name": "Ones", "config": {}}, "gamma_initializer": {"class_name": "Ones", "config": {}}, "epsilon": 0.001, "gamma_constraint": null, "beta_constraint": null, "center": true, "beta_regularizer": null}, "inbound_nodes": [[["res3b_branch2a", 0, 0, {}]]]}, {"name": "activation_14", "class_name": "Activation", "config": {"name": "activation_14", "activation": "relu", "trainable": true}, "inbound_nodes": [[["bn3b_branch2a", 0, 0, {}]]]}, {"name": "res3b_branch2b", "class_name": "Conv2D", "config": {"filters": 128, "bias_regularizer": null, "data_format": "channels_last", "kernel_regularizer": null, "use_bias": true, "name": "res3b_branch2b", "padding": "same", "bias_constraint": null, "strides": [1, 1], "trainable": true, "kernel_constraint": null, "activity_regularizer": null, "kernel_size": [3, 3], "dilation_rate": [1, 1], "kernel_initializer": {"class_name": "VarianceScaling", "config": {"scale": 1.0, "distribution": "uniform", "mode": "fan_avg", "seed": null}}, "bias_initializer": {"class_name": "Zeros", "config": {}}, "activation": "linear"}, "inbound_nodes": [[["activation_14", 0, 0, {}]]]}, {"name": "bn3b_branch2b", "class_name": "BatchNormalization", "config": {"momentum": 0.99, "gamma_regularizer": null, "axis": 3, "name": "bn3b_branch2b", "scale": true, "moving_mean_initializer": {"class_name": "Zeros", "config": {}}, "trainable": true, "beta_initializer": {"class_name": "Zeros", "config": {}}, "moving_variance_initializer": {"class_name": "Ones", "config": {}}, "gamma_initializer": {"class_name": "Ones", "config": {}}, "epsilon": 0.001, "gamma_constraint": null, "beta_constraint": null, "center": true, "beta_regularizer": null}, "inbound_nodes": [[["res3b_branch2b", 0, 0, {}]]]}, {"name": "activation_15", "class_name": "Activation", "config": {"name": "activation_15", "activation": "relu", "trainable": true}, "inbound_nodes": [[["bn3b_branch2b", 0, 0, {}]]]}, {"name": "res3b_branch2c", "class_name": "Conv2D", "config": {"filters": 512, "bias_regularizer": null, "data_format": "channels_last", "kernel_regularizer": null, "use_bias": true, "name": "res3b_branch2c", "padding": "valid", "bias_constraint": null, "strides": [1, 1], "trainable": true, "kernel_constraint": null, "activity_regularizer": null, "kernel_size": [1, 1], "dilation_rate": [1, 1], "kernel_initializer": {"class_name": "VarianceScaling", "config": {"scale": 1.0, "distribution": "uniform", "mode": "fan_avg", "seed": null}}, "bias_initializer": {"class_name": "Zeros", "config": {}}, "activation": "linear"}, "inbound_nodes": [[["activation_15", 0, 0, {}]]]}, {"name": "bn3b_branch2c", "class_name": "BatchNormalization", "config": {"momentum": 0.99, "gamma_regularizer": null, "axis": 3, "name": "bn3b_branch2c", "scale": true, "moving_mean_initializer": {"class_name": "Zeros", "config": {}}, "trainable": true, "beta_initializer": {"class_name": "Zeros", "config": {}}, "moving_variance_initializer": {"class_name": "Ones", "config": {}}, "gamma_initializer": {"class_name": "Ones", "config": {}}, "epsilon": 0.001, "gamma_constraint": null, "beta_constraint": null, "center": true, "beta_regularizer": null}, "inbound_nodes": [[["res3b_branch2c", 0, 0, {}]]]}, {"name": "add_5", "class_name": "Add", "config": {"name": "add_5", "trainable": true}, "inbound_nodes": [[["bn3b_branch2c", 0, 0, {}], ["activation_13", 0, 0, {}]]]}, {"name": "activation_16", "class_name": "Activation", "config": {"name": "activation_16", "activation": "relu", "trainable": true}, "inbound_nodes": [[["add_5", 0, 0, {}]]]}, {"name": "res3c_branch2a", "class_name": "Conv2D", "config": {"filters": 128, "bias_regularizer": null, "data_format": "channels_last", "kernel_regularizer": null, "use_bias": true, "name": "res3c_branch2a", "padding": "valid", "bias_constraint": null, "strides": [1, 1], "trainable": true, "kernel_constraint": null, "activity_regularizer": null, "kernel_size": [1, 1], "dilation_rate": [1, 1], "kernel_initializer": {"class_name": "VarianceScaling", "config": {"scale": 1.0, "distribution": "uniform", "mode": "fan_avg", "seed": null}}, "bias_initializer": {"class_name": "Zeros", "config": {}}, "activation": "linear"}, "inbound_nodes": [[["activation_16", 0, 0, {}]]]}, {"name": "bn3c_branch2a", "class_name": "BatchNormalization", "config": {"momentum": 0.99, "gamma_regularizer": null, "axis": 3, "name": "bn3c_branch2a", "scale": true, "moving_mean_initializer": {"class_name": "Zeros", "config": {}}, "trainable": true, "beta_initializer": {"class_name": "Zeros", "config": {}}, "moving_variance_initializer": {"class_name": "Ones", "config": {}}, "gamma_initializer": {"class_name": "Ones", "config": {}}, "epsilon": 0.001, "gamma_constraint": null, "beta_constraint": null, "center": true, "beta_regularizer": null}, "inbound_nodes": [[["res3c_branch2a", 0, 0, {}]]]}, {"name": "activation_17", "class_name": "Activation", "config": {"name": "activation_17", "activation": "relu", "trainable": true}, "inbound_nodes": [[["bn3c_branch2a", 0, 0, {}]]]}, {"name": "res3c_branch2b", "class_name": "Conv2D", "config": {"filters": 128, "bias_regularizer": null, "data_format": "channels_last", "kernel_regularizer": null, "use_bias": true, "name": "res3c_branch2b", "padding": "same", "bias_constraint": null, "strides": [1, 1], "trainable": true, "kernel_constraint": null, "activity_regularizer": null, "kernel_size": [3, 3], "dilation_rate": [1, 1], "kernel_initializer": {"class_name": "VarianceScaling", "config": {"scale": 1.0, "distribution": "uniform", "mode": "fan_avg", "seed": null}}, "bias_initializer": {"class_name": "Zeros", "config": {}}, "activation": "linear"}, "inbound_nodes": [[["activation_17", 0, 0, {}]]]}, {"name": "bn3c_branch2b", "class_name": "BatchNormalization", "config": {"momentum": 0.99, "gamma_regularizer": null, "axis": 3, "name": "bn3c_branch2b", "scale": true, "moving_mean_initializer": {"class_name": "Zeros", "config": {}}, "trainable": true, "beta_initializer": {"class_name": "Zeros", "config": {}}, "moving_variance_initializer": {"class_name": "Ones", "config": {}}, "gamma_initializer": {"class_name": "Ones", "config": {}}, "epsilon": 0.001, "gamma_constraint": null, "beta_constraint": null, "center": true, "beta_regularizer": null}, "inbound_nodes": [[["res3c_branch2b", 0, 0, {}]]]}, {"name": "activation_18", "class_name": "Activation", "config": {"name": "activation_18", "activation": "relu", "trainable": true}, "inbound_nodes": [[["bn3c_branch2b", 0, 0, {}]]]}, {"name": "res3c_branch2c", "class_name": "Conv2D", "config": {"filters": 512, "bias_regularizer": null, "data_format": "channels_last", "kernel_regularizer": null, "use_bias": true, "name": "res3c_branch2c", "padding": "valid", "bias_constraint": null, "strides": [1, 1], "trainable": true, "kernel_constraint": null, "activity_regularizer": null, "kernel_size": [1, 1], "dilation_rate": [1, 1], "kernel_initializer": {"class_name": "VarianceScaling", "config": {"scale": 1.0, "distribution": "uniform", "mode": "fan_avg", "seed": null}}, "bias_initializer": {"class_name": "Zeros", "config": {}}, "activation": "linear"}, "inbound_nodes": [[["activation_18", 0, 0, {}]]]}, {"name": "bn3c_branch2c", "class_name": "BatchNormalization", "config": {"momentum": 0.99, "gamma_regularizer": null, "axis": 3, "name": "bn3c_branch2c", "scale": true, "moving_mean_initializer": {"class_name": "Zeros", "config": {}}, "trainable": true, "beta_initializer": {"class_name": "Zeros", "config": {}}, "moving_variance_initializer": {"class_name": "Ones", "config": {}}, "gamma_initializer": {"class_name": "Ones", "config": {}}, "epsilon": 0.001, "gamma_constraint": null, "beta_constraint": null, "center": true, "beta_regularizer": null}, "inbound_nodes": [[["res3c_branch2c", 0, 0, {}]]]}, {"name": "add_6", "class_name": "Add", "config": {"name": "add_6", "trainable": true}, "inbound_nodes": [[["bn3c_branch2c", 0, 0, {}], ["activation_16", 0, 0, {}]]]}, {"name": "activation_19", "class_name": "Activation", "config": {"name": "activation_19", "activation": "relu", "trainable": true}, "inbound_nodes": [[["add_6", 0, 0, {}]]]}, {"name": "res3d_branch2a", "class_name": "Conv2D", "config": {"filters": 128, "bias_regularizer": null, "data_format": "channels_last", "kernel_regularizer": null, "use_bias": true, "name": "res3d_branch2a", "padding": "valid", "bias_constraint": null, "strides": [1, 1], "trainable": true, "kernel_constraint": null, "activity_regularizer": null, "kernel_size": [1, 1], "dilation_rate": [1, 1], "kernel_initializer": {"class_name": "VarianceScaling", "config": {"scale": 1.0, "distribution": "uniform", "mode": "fan_avg", "seed": null}}, "bias_initializer": {"class_name": "Zeros", "config": {}}, "activation": "linear"}, "inbound_nodes": [[["activation_19", 0, 0, {}]]]}, {"name": "bn3d_branch2a", "class_name": "BatchNormalization", "config": {"momentum": 0.99, "gamma_regularizer": null, "axis": 3, "name": "bn3d_branch2a", "scale": true, "moving_mean_initializer": {"class_name": "Zeros", "config": {}}, "trainable": true, "beta_initializer": {"class_name": "Zeros", "config": {}}, "moving_variance_initializer": {"class_name": "Ones", "config": {}}, "gamma_initializer": {"class_name": "Ones", "config": {}}, "epsilon": 0.001, "gamma_constraint": null, "beta_constraint": null, "center": true, "beta_regularizer": null}, "inbound_nodes": [[["res3d_branch2a", 0, 0, {}]]]}, {"name": "activation_20", "class_name": "Activation", "config": {"name": "activation_20", "activation": "relu", "trainable": true}, "inbound_nodes": [[["bn3d_branch2a", 0, 0, {}]]]}, {"name": "res3d_branch2b", "class_name": "Conv2D", "config": {"filters": 128, "bias_regularizer": null, "data_format": "channels_last", "kernel_regularizer": null, "use_bias": true, "name": "res3d_branch2b", "padding": "same", "bias_constraint": null, "strides": [1, 1], "trainable": true, "kernel_constraint": null, "activity_regularizer": null, "kernel_size": [3, 3], "dilation_rate": [1, 1], "kernel_initializer": {"class_name": "VarianceScaling", "config": {"scale": 1.0, "distribution": "uniform", "mode": "fan_avg", "seed": null}}, "bias_initializer": {"class_name": "Zeros", "config": {}}, "activation": "linear"}, "inbound_nodes": [[["activation_20", 0, 0, {}]]]}, {"name": "bn3d_branch2b", "class_name": "BatchNormalization", "config": {"momentum": 0.99, "gamma_regularizer": null, "axis": 3, "name": "bn3d_branch2b", "scale": true, "moving_mean_initializer": {"class_name": "Zeros", "config": {}}, "trainable": true, "beta_initializer": {"class_name": "Zeros", "config": {}}, "moving_variance_initializer": {"class_name": "Ones", "config": {}}, "gamma_initializer": {"class_name": "Ones", "config": {}}, "epsilon": 0.001, "gamma_constraint": null, "beta_constraint": null, "center": true, "beta_regularizer": null}, "inbound_nodes": [[["res3d_branch2b", 0, 0, {}]]]}, {"name": "activation_21", "class_name": "Activation", "config": {"name": "activation_21", "activation": "relu", "trainable": true}, "inbound_nodes": [[["bn3d_branch2b", 0, 0, {}]]]}, {"name": "res3d_branch2c", "class_name": "Conv2D", "config": {"filters": 512, "bias_regularizer": null, "data_format": "channels_last", "kernel_regularizer": null, "use_bias": true, "name": "res3d_branch2c", "padding": "valid", "bias_constraint": null, "strides": [1, 1], "trainable": true, "kernel_constraint": null, "activity_regularizer": null, "kernel_size": [1, 1], "dilation_rate": [1, 1], "kernel_initializer": {"class_name": "VarianceScaling", "config": {"scale": 1.0, "distribution": "uniform", "mode": "fan_avg", "seed": null}}, "bias_initializer": {"class_name": "Zeros", "config": {}}, "activation": "linear"}, "inbound_nodes": [[["activation_21", 0, 0, {}]]]}, {"name": "bn3d_branch2c", "class_name": "BatchNormalization", "config": {"momentum": 0.99, "gamma_regularizer": null, "axis": 3, "name": "bn3d_branch2c", "scale": true, "moving_mean_initializer": {"class_name": "Zeros", "config": {}}, "trainable": true, "beta_initializer": {"class_name": "Zeros", "config": {}}, "moving_variance_initializer": {"class_name": "Ones", "config": {}}, "gamma_initializer": {"class_name": "Ones", "config": {}}, "epsilon": 0.001, "gamma_constraint": null, "beta_constraint": null, "center": true, "beta_regularizer": null}, "inbound_nodes": [[["res3d_branch2c", 0, 0, {}]]]}, {"name": "add_7", "class_name": "Add", "config": {"name": "add_7", "trainable": true}, "inbound_nodes": [[["bn3d_branch2c", 0, 0, {}], ["activation_19", 0, 0, {}]]]}, {"name": "activation_22", "class_name": "Activation", "config": {"name": "activation_22", "activation": "relu", "trainable": true}, "inbound_nodes": [[["add_7", 0, 0, {}]]]}, {"name": "res4a_branch2a", "class_name": "Conv2D", "config": {"filters": 256, "bias_regularizer": null, "data_format": "channels_last", "kernel_regularizer": null, "use_bias": true, "name": "res4a_branch2a", "padding": "valid", "bias_constraint": null, "strides": [2, 2], "trainable": true, "kernel_constraint": null, "activity_regularizer": null, "kernel_size": [1, 1], "dilation_rate": [1, 1], "kernel_initializer": {"class_name": "VarianceScaling", "config": {"scale": 1.0, "distribution": "uniform", "mode": "fan_avg", "seed": null}}, "bias_initializer": {"class_name": "Zeros", "config": {}}, "activation": "linear"}, "inbound_nodes": [[["activation_22", 0, 0, {}]]]}, {"name": "bn4a_branch2a", "class_name": "BatchNormalization", "config": {"momentum": 0.99, "gamma_regularizer": null, "axis": 3, "name": "bn4a_branch2a", "scale": true, "moving_mean_initializer": {"class_name": "Zeros", "config": {}}, "trainable": true, "beta_initializer": {"class_name": "Zeros", "config": {}}, "moving_variance_initializer": {"class_name": "Ones", "config": {}}, "gamma_initializer": {"class_name": "Ones", "config": {}}, "epsilon": 0.001, "gamma_constraint": null, "beta_constraint": null, "center": true, "beta_regularizer": null}, "inbound_nodes": [[["res4a_branch2a", 0, 0, {}]]]}, {"name": "activation_23", "class_name": "Activation", "config": {"name": "activation_23", "activation": "relu", "trainable": true}, "inbound_nodes": [[["bn4a_branch2a", 0, 0, {}]]]}, {"name": "res4a_branch2b", "class_name": "Conv2D", "config": {"filters": 256, "bias_regularizer": null, "data_format": "channels_last", "kernel_regularizer": null, "use_bias": true, "name": "res4a_branch2b", "padding": "same", "bias_constraint": null, "strides": [1, 1], "trainable": true, "kernel_constraint": null, "activity_regularizer": null, "kernel_size": [3, 3], "dilation_rate": [1, 1], "kernel_initializer": {"class_name": "VarianceScaling", "config": {"scale": 1.0, "distribution": "uniform", "mode": "fan_avg", "seed": null}}, "bias_initializer": {"class_name": "Zeros", "config": {}}, "activation": "linear"}, "inbound_nodes": [[["activation_23", 0, 0, {}]]]}, {"name": "bn4a_branch2b", "class_name": "BatchNormalization", "config": {"momentum": 0.99, "gamma_regularizer": null, "axis": 3, "name": "bn4a_branch2b", "scale": true, "moving_mean_initializer": {"class_name": "Zeros", "config": {}}, "trainable": true, "beta_initializer": {"class_name": "Zeros", "config": {}}, "moving_variance_initializer": {"class_name": "Ones", "config": {}}, "gamma_initializer": {"class_name": "Ones", "config": {}}, "epsilon": 0.001, "gamma_constraint": null, "beta_constraint": null, "center": true, "beta_regularizer": null}, "inbound_nodes": [[["res4a_branch2b", 0, 0, {}]]]}, {"name": "activation_24", "class_name": "Activation", "config": {"name": "activation_24", "activation": "relu", "trainable": true}, "inbound_nodes": [[["bn4a_branch2b", 0, 0, {}]]]}, {"name": "res4a_branch2c", "class_name": "Conv2D", "config": {"filters": 1024, "bias_regularizer": null, "data_format": "channels_last", "kernel_regularizer": null, "use_bias": true, "name": "res4a_branch2c", "padding": "valid", "bias_constraint": null, "strides": [1, 1], "trainable": true, "kernel_constraint": null, "activity_regularizer": null, "kernel_size": [1, 1], "dilation_rate": [1, 1], "kernel_initializer": {"class_name": "VarianceScaling", "config": {"scale": 1.0, "distribution": "uniform", "mode": "fan_avg", "seed": null}}, "bias_initializer": {"class_name": "Zeros", "config": {}}, "activation": "linear"}, "inbound_nodes": [[["activation_24", 0, 0, {}]]]}, {"name": "res4a_branch1", "class_name": "Conv2D", "config": {"filters": 1024, "bias_regularizer": null, "data_format": "channels_last", "kernel_regularizer": null, "use_bias": true, "name": "res4a_branch1", "padding": "valid", "bias_constraint": null, "strides": [2, 2], "trainable": true, "kernel_constraint": null, "activity_regularizer": null, "kernel_size": [1, 1], "dilation_rate": [1, 1], "kernel_initializer": {"class_name": "VarianceScaling", "config": {"scale": 1.0, "distribution": "uniform", "mode": "fan_avg", "seed": null}}, "bias_initializer": {"class_name": "Zeros", "config": {}}, "activation": "linear"}, "inbound_nodes": [[["activation_22", 0, 0, {}]]]}, {"name": "bn4a_branch2c", "class_name": "BatchNormalization", "config": {"momentum": 0.99, "gamma_regularizer": null, "axis": 3, "name": "bn4a_branch2c", "scale": true, "moving_mean_initializer": {"class_name": "Zeros", "config": {}}, "trainable": true, "beta_initializer": {"class_name": "Zeros", "config": {}}, "moving_variance_initializer": {"class_name": "Ones", "config": {}}, "gamma_initializer": {"class_name": "Ones", "config": {}}, "epsilon": 0.001, "gamma_constraint": null, "beta_constraint": null, "center": true, "beta_regularizer": null}, "inbound_nodes": [[["res4a_branch2c", 0, 0, {}]]]}, {"name": "bn4a_branch1", "class_name": "BatchNormalization", "config": {"momentum": 0.99, "gamma_regularizer": null, "axis": 3, "name": "bn4a_branch1", "scale": true, "moving_mean_initializer": {"class_name": "Zeros", "config": {}}, "trainable": true, "beta_initializer": {"class_name": "Zeros", "config": {}}, "moving_variance_initializer": {"class_name": "Ones", "config": {}}, "gamma_initializer": {"class_name": "Ones", "config": {}}, "epsilon": 0.001, "gamma_constraint": null, "beta_constraint": null, "center": true, "beta_regularizer": null}, "inbound_nodes": [[["res4a_branch1", 0, 0, {}]]]}, {"name": "add_8", "class_name": "Add", "config": {"name": "add_8", "trainable": true}, "inbound_nodes": [[["bn4a_branch2c", 0, 0, {}], ["bn4a_branch1", 0, 0, {}]]]}, {"name": "activation_25", "class_name": "Activation", "config": {"name": "activation_25", "activation": "relu", "trainable": true}, "inbound_nodes": [[["add_8", 0, 0, {}]]]}, {"name": "res4b_branch2a", "class_name": "Conv2D", "config": {"filters": 256, "bias_regularizer": null, "data_format": "channels_last", "kernel_regularizer": null, "use_bias": true, "name": "res4b_branch2a", "padding": "valid", "bias_constraint": null, "strides": [1, 1], "trainable": true, "kernel_constraint": null, "activity_regularizer": null, "kernel_size": [1, 1], "dilation_rate": [1, 1], "kernel_initializer": {"class_name": "VarianceScaling", "config": {"scale": 1.0, "distribution": "uniform", "mode": "fan_avg", "seed": null}}, "bias_initializer": {"class_name": "Zeros", "config": {}}, "activation": "linear"}, "inbound_nodes": [[["activation_25", 0, 0, {}]]]}, {"name": "bn4b_branch2a", "class_name": "BatchNormalization", "config": {"momentum": 0.99, "gamma_regularizer": null, "axis": 3, "name": "bn4b_branch2a", "scale": true, "moving_mean_initializer": {"class_name": "Zeros", "config": {}}, "trainable": true, "beta_initializer": {"class_name": "Zeros", "config": {}}, "moving_variance_initializer": {"class_name": "Ones", "config": {}}, "gamma_initializer": {"class_name": "Ones", "config": {}}, "epsilon": 0.001, "gamma_constraint": null, "beta_constraint": null, "center": true, "beta_regularizer": null}, "inbound_nodes": [[["res4b_branch2a", 0, 0, {}]]]}, {"name": "activation_26", "class_name": "Activation", "config": {"name": "activation_26", "activation": "relu", "trainable": true}, "inbound_nodes": [[["bn4b_branch2a", 0, 0, {}]]]}, {"name": "res4b_branch2b", "class_name": "Conv2D", "config": {"filters": 256, "bias_regularizer": null, "data_format": "channels_last", "kernel_regularizer": null, "use_bias": true, "name": "res4b_branch2b", "padding": "same", "bias_constraint": null, "strides": [1, 1], "trainable": true, "kernel_constraint": null, "activity_regularizer": null, "kernel_size": [3, 3], "dilation_rate": [1, 1], "kernel_initializer": {"class_name": "VarianceScaling", "config": {"scale": 1.0, "distribution": "uniform", "mode": "fan_avg", "seed": null}}, "bias_initializer": {"class_name": "Zeros", "config": {}}, "activation": "linear"}, "inbound_nodes": [[["activation_26", 0, 0, {}]]]}, {"name": "bn4b_branch2b", "class_name": "BatchNormalization", "config": {"momentum": 0.99, "gamma_regularizer": null, "axis": 3, "name": "bn4b_branch2b", "scale": true, "moving_mean_initializer": {"class_name": "Zeros", "config": {}}, "trainable": true, "beta_initializer": {"class_name": "Zeros", "config": {}}, "moving_variance_initializer": {"class_name": "Ones", "config": {}}, "gamma_initializer": {"class_name": "Ones", "config": {}}, "epsilon": 0.001, "gamma_constraint": null, "beta_constraint": null, "center": true, "beta_regularizer": null}, "inbound_nodes": [[["res4b_branch2b", 0, 0, {}]]]}, {"name": "activation_27", "class_name": "Activation", "config": {"name": "activation_27", "activation": "relu", "trainable": true}, "inbound_nodes": [[["bn4b_branch2b", 0, 0, {}]]]}, {"name": "res4b_branch2c", "class_name": "Conv2D", "config": {"filters": 1024, "bias_regularizer": null, "data_format": "channels_last", "kernel_regularizer": null, "use_bias": true, "name": "res4b_branch2c", "padding": "valid", "bias_constraint": null, "strides": [1, 1], "trainable": true, "kernel_constraint": null, "activity_regularizer": null, "kernel_size": [1, 1], "dilation_rate": [1, 1], "kernel_initializer": {"class_name": "VarianceScaling", "config": {"scale": 1.0, "distribution": "uniform", "mode": "fan_avg", "seed": null}}, "bias_initializer": {"class_name": "Zeros", "config": {}}, "activation": "linear"}, "inbound_nodes": [[["activation_27", 0, 0, {}]]]}, {"name": "bn4b_branch2c", "class_name": "BatchNormalization", "config": {"momentum": 0.99, "gamma_regularizer": null, "axis": 3, "name": "bn4b_branch2c", "scale": true, "moving_mean_initializer": {"class_name": "Zeros", "config": {}}, "trainable": true, "beta_initializer": {"class_name": "Zeros", "config": {}}, "moving_variance_initializer": {"class_name": "Ones", "config": {}}, "gamma_initializer": {"class_name": "Ones", "config": {}}, "epsilon": 0.001, "gamma_constraint": null, "beta_constraint": null, "center": true, "beta_regularizer": null}, "inbound_nodes": [[["res4b_branch2c", 0, 0, {}]]]}, {"name": "add_9", "class_name": "Add", "config": {"name": "add_9", "trainable": true}, "inbound_nodes": [[["bn4b_branch2c", 0, 0, {}], ["activation_25", 0, 0, {}]]]}, {"name": "activation_28", "class_name": "Activation", "config": {"name": "activation_28", "activation": "relu", "trainable": true}, "inbound_nodes": [[["add_9", 0, 0, {}]]]}, {"name": "res4c_branch2a", "class_name": "Conv2D", "config": {"filters": 256, "bias_regularizer": null, "data_format": "channels_last", "kernel_regularizer": null, "use_bias": true, "name": "res4c_branch2a", "padding": "valid", "bias_constraint": null, "strides": [1, 1], "trainable": true, "kernel_constraint": null, "activity_regularizer": null, "kernel_size": [1, 1], "dilation_rate": [1, 1], "kernel_initializer": {"class_name": "VarianceScaling", "config": {"scale": 1.0, "distribution": "uniform", "mode": "fan_avg", "seed": null}}, "bias_initializer": {"class_name": "Zeros", "config": {}}, "activation": "linear"}, "inbound_nodes": [[["activation_28", 0, 0, {}]]]}, {"name": "bn4c_branch2a", "class_name": "BatchNormalization", "config": {"momentum": 0.99, "gamma_regularizer": null, "axis": 3, "name": "bn4c_branch2a", "scale": true, "moving_mean_initializer": {"class_name": "Zeros", "config": {}}, "trainable": true, "beta_initializer": {"class_name": "Zeros", "config": {}}, "moving_variance_initializer": {"class_name": "Ones", "config": {}}, "gamma_initializer": {"class_name": "Ones", "config": {}}, "epsilon": 0.001, "gamma_constraint": null, "beta_constraint": null, "center": true, "beta_regularizer": null}, "inbound_nodes": [[["res4c_branch2a", 0, 0, {}]]]}, {"name": "activation_29", "class_name": "Activation", "config": {"name": "activation_29", "activation": "relu", "trainable": true}, "inbound_nodes": [[["bn4c_branch2a", 0, 0, {}]]]}, {"name": "res4c_branch2b", "class_name": "Conv2D", "config": {"filters": 256, "bias_regularizer": null, "data_format": "channels_last", "kernel_regularizer": null, "use_bias": true, "name": "res4c_branch2b", "padding": "same", "bias_constraint": null, "strides": [1, 1], "trainable": true, "kernel_constraint": null, "activity_regularizer": null, "kernel_size": [3, 3], "dilation_rate": [1, 1], "kernel_initializer": {"class_name": "VarianceScaling", "config": {"scale": 1.0, "distribution": "uniform", "mode": "fan_avg", "seed": null}}, "bias_initializer": {"class_name": "Zeros", "config": {}}, "activation": "linear"}, "inbound_nodes": [[["activation_29", 0, 0, {}]]]}, {"name": "bn4c_branch2b", "class_name": "BatchNormalization", "config": {"momentum": 0.99, "gamma_regularizer": null, "axis": 3, "name": "bn4c_branch2b", "scale": true, "moving_mean_initializer": {"class_name": "Zeros", "config": {}}, "trainable": true, "beta_initializer": {"class_name": "Zeros", "config": {}}, "moving_variance_initializer": {"class_name": "Ones", "config": {}}, "gamma_initializer": {"class_name": "Ones", "config": {}}, "epsilon": 0.001, "gamma_constraint": null, "beta_constraint": null, "center": true, "beta_regularizer": null}, "inbound_nodes": [[["res4c_branch2b", 0, 0, {}]]]}, {"name": "activation_30", "class_name": "Activation", "config": {"name": "activation_30", "activation": "relu", "trainable": true}, "inbound_nodes": [[["bn4c_branch2b", 0, 0, {}]]]}, {"name": "res4c_branch2c", "class_name": "Conv2D", "config": {"filters": 1024, "bias_regularizer": null, "data_format": "channels_last", "kernel_regularizer": null, "use_bias": true, "name": "res4c_branch2c", "padding": "valid", "bias_constraint": null, "strides": [1, 1], "trainable": true, "kernel_constraint": null, "activity_regularizer": null, "kernel_size": [1, 1], "dilation_rate": [1, 1], "kernel_initializer": {"class_name": "VarianceScaling", "config": {"scale": 1.0, "distribution": "uniform", "mode": "fan_avg", "seed": null}}, "bias_initializer": {"class_name": "Zeros", "config": {}}, "activation": "linear"}, "inbound_nodes": [[["activation_30", 0, 0, {}]]]}, {"name": "bn4c_branch2c", "class_name": "BatchNormalization", "config": {"momentum": 0.99, "gamma_regularizer": null, "axis": 3, "name": "bn4c_branch2c", "scale": true, "moving_mean_initializer": {"class_name": "Zeros", "config": {}}, "trainable": true, "beta_initializer": {"class_name": "Zeros", "config": {}}, "moving_variance_initializer": {"class_name": "Ones", "config": {}}, "gamma_initializer": {"class_name": "Ones", "config": {}}, "epsilon": 0.001, "gamma_constraint": null, "beta_constraint": null, "center": true, "beta_regularizer": null}, "inbound_nodes": [[["res4c_branch2c", 0, 0, {}]]]}, {"name": "add_10", "class_name": "Add", "config": {"name": "add_10", "trainable": true}, "inbound_nodes": [[["bn4c_branch2c", 0, 0, {}], ["activation_28", 0, 0, {}]]]}, {"name": "activation_31", "class_name": "Activation", "config": {"name": "activation_31", "activation": "relu", "trainable": true}, "inbound_nodes": [[["add_10", 0, 0, {}]]]}, {"name": "res4d_branch2a", "class_name": "Conv2D", "config": {"filters": 256, "bias_regularizer": null, "data_format": "channels_last", "kernel_regularizer": null, "use_bias": true, "name": "res4d_branch2a", "padding": "valid", "bias_constraint": null, "strides": [1, 1], "trainable": true, "kernel_constraint": null, "activity_regularizer": null, "kernel_size": [1, 1], "dilation_rate": [1, 1], "kernel_initializer": {"class_name": "VarianceScaling", "config": {"scale": 1.0, "distribution": "uniform", "mode": "fan_avg", "seed": null}}, "bias_initializer": {"class_name": "Zeros", "config": {}}, "activation": "linear"}, "inbound_nodes": [[["activation_31", 0, 0, {}]]]}, {"name": "bn4d_branch2a", "class_name": "BatchNormalization", "config": {"momentum": 0.99, "gamma_regularizer": null, "axis": 3, "name": "bn4d_branch2a", "scale": true, "moving_mean_initializer": {"class_name": "Zeros", "config": {}}, "trainable": true, "beta_initializer": {"class_name": "Zeros", "config": {}}, "moving_variance_initializer": {"class_name": "Ones", "config": {}}, "gamma_initializer": {"class_name": "Ones", "config": {}}, "epsilon": 0.001, "gamma_constraint": null, "beta_constraint": null, "center": true, "beta_regularizer": null}, "inbound_nodes": [[["res4d_branch2a", 0, 0, {}]]]}, {"name": "activation_32", "class_name": "Activation", "config": {"name": "activation_32", "activation": "relu", "trainable": true}, "inbound_nodes": [[["bn4d_branch2a", 0, 0, {}]]]}, {"name": "res4d_branch2b", "class_name": "Conv2D", "config": {"filters": 256, "bias_regularizer": null, "data_format": "channels_last", "kernel_regularizer": null, "use_bias": true, "name": "res4d_branch2b", "padding": "same", "bias_constraint": null, "strides": [1, 1], "trainable": true, "kernel_constraint": null, "activity_regularizer": null, "kernel_size": [3, 3], "dilation_rate": [1, 1], "kernel_initializer": {"class_name": "VarianceScaling", "config": {"scale": 1.0, "distribution": "uniform", "mode": "fan_avg", "seed": null}}, "bias_initializer": {"class_name": "Zeros", "config": {}}, "activation": "linear"}, "inbound_nodes": [[["activation_32", 0, 0, {}]]]}, {"name": "bn4d_branch2b", "class_name": "BatchNormalization", "config": {"momentum": 0.99, "gamma_regularizer": null, "axis": 3, "name": "bn4d_branch2b", "scale": true, "moving_mean_initializer": {"class_name": "Zeros", "config": {}}, "trainable": true, "beta_initializer": {"class_name": "Zeros", "config": {}}, "moving_variance_initializer": {"class_name": "Ones", "config": {}}, "gamma_initializer": {"class_name": "Ones", "config": {}}, "epsilon": 0.001, "gamma_constraint": null, "beta_constraint": null, "center": true, "beta_regularizer": null}, "inbound_nodes": [[["res4d_branch2b", 0, 0, {}]]]}, {"name": "activation_33", "class_name": "Activation", "config": {"name": "activation_33", "activation": "relu", "trainable": true}, "inbound_nodes": [[["bn4d_branch2b", 0, 0, {}]]]}, {"name": "res4d_branch2c", "class_name": "Conv2D", "config": {"filters": 1024, "bias_regularizer": null, "data_format": "channels_last", "kernel_regularizer": null, "use_bias": true, "name": "res4d_branch2c", "padding": "valid", "bias_constraint": null, "strides": [1, 1], "trainable": true, "kernel_constraint": null, "activity_regularizer": null, "kernel_size": [1, 1], "dilation_rate": [1, 1], "kernel_initializer": {"class_name": "VarianceScaling", "config": {"scale": 1.0, "distribution": "uniform", "mode": "fan_avg", "seed": null}}, "bias_initializer": {"class_name": "Zeros", "config": {}}, "activation": "linear"}, "inbound_nodes": [[["activation_33", 0, 0, {}]]]}, {"name": "bn4d_branch2c", "class_name": "BatchNormalization", "config": {"momentum": 0.99, "gamma_regularizer": null, "axis": 3, "name": "bn4d_branch2c", "scale": true, "moving_mean_initializer": {"class_name": "Zeros", "config": {}}, "trainable": true, "beta_initializer": {"class_name": "Zeros", "config": {}}, "moving_variance_initializer": {"class_name": "Ones", "config": {}}, "gamma_initializer": {"class_name": "Ones", "config": {}}, "epsilon": 0.001, "gamma_constraint": null, "beta_constraint": null, "center": true, "beta_regularizer": null}, "inbound_nodes": [[["res4d_branch2c", 0, 0, {}]]]}, {"name": "add_11", "class_name": "Add", "config": {"name": "add_11", "trainable": true}, "inbound_nodes": [[["bn4d_branch2c", 0, 0, {}], ["activation_31", 0, 0, {}]]]}, {"name": "activation_34", "class_name": "Activation", "config": {"name": "activation_34", "activation": "relu", "trainable": true}, "inbound_nodes": [[["add_11", 0, 0, {}]]]}, {"name": "res4e_branch2a", "class_name": "Conv2D", "config": {"filters": 256, "bias_regularizer": null, "data_format": "channels_last", "kernel_regularizer": null, "use_bias": true, "name": "res4e_branch2a", "padding": "valid", "bias_constraint": null, "strides": [1, 1], "trainable": true, "kernel_constraint": null, "activity_regularizer": null, "kernel_size": [1, 1], "dilation_rate": [1, 1], "kernel_initializer": {"class_name": "VarianceScaling", "config": {"scale": 1.0, "distribution": "uniform", "mode": "fan_avg", "seed": null}}, "bias_initializer": {"class_name": "Zeros", "config": {}}, "activation": "linear"}, "inbound_nodes": [[["activation_34", 0, 0, {}]]]}, {"name": "bn4e_branch2a", "class_name": "BatchNormalization", "config": {"momentum": 0.99, "gamma_regularizer": null, "axis": 3, "name": "bn4e_branch2a", "scale": true, "moving_mean_initializer": {"class_name": "Zeros", "config": {}}, "trainable": true, "beta_initializer": {"class_name": "Zeros", "config": {}}, "moving_variance_initializer": {"class_name": "Ones", "config": {}}, "gamma_initializer": {"class_name": "Ones", "config": {}}, "epsilon": 0.001, "gamma_constraint": null, "beta_constraint": null, "center": true, "beta_regularizer": null}, "inbound_nodes": [[["res4e_branch2a", 0, 0, {}]]]}, {"name": "activation_35", "class_name": "Activation", "config": {"name": "activation_35", "activation": "relu", "trainable": true}, "inbound_nodes": [[["bn4e_branch2a", 0, 0, {}]]]}, {"name": "res4e_branch2b", "class_name": "Conv2D", "config": {"filters": 256, "bias_regularizer": null, "data_format": "channels_last", "kernel_regularizer": null, "use_bias": true, "name": "res4e_branch2b", "padding": "same", "bias_constraint": null, "strides": [1, 1], "trainable": true, "kernel_constraint": null, "activity_regularizer": null, "kernel_size": [3, 3], "dilation_rate": [1, 1], "kernel_initializer": {"class_name": "VarianceScaling", "config": {"scale": 1.0, "distribution": "uniform", "mode": "fan_avg", "seed": null}}, "bias_initializer": {"class_name": "Zeros", "config": {}}, "activation": "linear"}, "inbound_nodes": [[["activation_35", 0, 0, {}]]]}, {"name": "bn4e_branch2b", "class_name": "BatchNormalization", "config": {"momentum": 0.99, "gamma_regularizer": null, "axis": 3, "name": "bn4e_branch2b", "scale": true, "moving_mean_initializer": {"class_name": "Zeros", "config": {}}, "trainable": true, "beta_initializer": {"class_name": "Zeros", "config": {}}, "moving_variance_initializer": {"class_name": "Ones", "config": {}}, "gamma_initializer": {"class_name": "Ones", "config": {}}, "epsilon": 0.001, "gamma_constraint": null, "beta_constraint": null, "center": true, "beta_regularizer": null}, "inbound_nodes": [[["res4e_branch2b", 0, 0, {}]]]}, {"name": "activation_36", "class_name": "Activation", "config": {"name": "activation_36", "activation": "relu", "trainable": true}, "inbound_nodes": [[["bn4e_branch2b", 0, 0, {}]]]}, {"name": "res4e_branch2c", "class_name": "Conv2D", "config": {"filters": 1024, "bias_regularizer": null, "data_format": "channels_last", "kernel_regularizer": null, "use_bias": true, "name": "res4e_branch2c", "padding": "valid", "bias_constraint": null, "strides": [1, 1], "trainable": true, "kernel_constraint": null, "activity_regularizer": null, "kernel_size": [1, 1], "dilation_rate": [1, 1], "kernel_initializer": {"class_name": "VarianceScaling", "config": {"scale": 1.0, "distribution": "uniform", "mode": "fan_avg", "seed": null}}, "bias_initializer": {"class_name": "Zeros", "config": {}}, "activation": "linear"}, "inbound_nodes": [[["activation_36", 0, 0, {}]]]}, {"name": "bn4e_branch2c", "class_name": "BatchNormalization", "config": {"momentum": 0.99, "gamma_regularizer": null, "axis": 3, "name": "bn4e_branch2c", "scale": true, "moving_mean_initializer": {"class_name": "Zeros", "config": {}}, "trainable": true, "beta_initializer": {"class_name": "Zeros", "config": {}}, "moving_variance_initializer": {"class_name": "Ones", "config": {}}, "gamma_initializer": {"class_name": "Ones", "config": {}}, "epsilon": 0.001, "gamma_constraint": null, "beta_constraint": null, "center": true, "beta_regularizer": null}, "inbound_nodes": [[["res4e_branch2c", 0, 0, {}]]]}, {"name": "add_12", "class_name": "Add", "config": {"name": "add_12", "trainable": true}, "inbound_nodes": [[["bn4e_branch2c", 0, 0, {}], ["activation_34", 0, 0, {}]]]}, {"name": "activation_37", "class_name": "Activation", "config": {"name": "activation_37", "activation": "relu", "trainable": true}, "inbound_nodes": [[["add_12", 0, 0, {}]]]}, {"name": "res4f_branch2a", "class_name": "Conv2D", "config": {"filters": 256, "bias_regularizer": null, "data_format": "channels_last", "kernel_regularizer": null, "use_bias": true, "name": "res4f_branch2a", "padding": "valid", "bias_constraint": null, "strides": [1, 1], "trainable": true, "kernel_constraint": null, "activity_regularizer": null, "kernel_size": [1, 1], "dilation_rate": [1, 1], "kernel_initializer": {"class_name": "VarianceScaling", "config": {"scale": 1.0, "distribution": "uniform", "mode": "fan_avg", "seed": null}}, "bias_initializer": {"class_name": "Zeros", "config": {}}, "activation": "linear"}, "inbound_nodes": [[["activation_37", 0, 0, {}]]]}, {"name": "bn4f_branch2a", "class_name": "BatchNormalization", "config": {"momentum": 0.99, "gamma_regularizer": null, "axis": 3, "name": "bn4f_branch2a", "scale": true, "moving_mean_initializer": {"class_name": "Zeros", "config": {}}, "trainable": true, "beta_initializer": {"class_name": "Zeros", "config": {}}, "moving_variance_initializer": {"class_name": "Ones", "config": {}}, "gamma_initializer": {"class_name": "Ones", "config": {}}, "epsilon": 0.001, "gamma_constraint": null, "beta_constraint": null, "center": true, "beta_regularizer": null}, "inbound_nodes": [[["res4f_branch2a", 0, 0, {}]]]}, {"name": "activation_38", "class_name": "Activation", "config": {"name": "activation_38", "activation": "relu", "trainable": true}, "inbound_nodes": [[["bn4f_branch2a", 0, 0, {}]]]}, {"name": "res4f_branch2b", "class_name": "Conv2D", "config": {"filters": 256, "bias_regularizer": null, "data_format": "channels_last", "kernel_regularizer": null, "use_bias": true, "name": "res4f_branch2b", "padding": "same", "bias_constraint": null, "strides": [1, 1], "trainable": true, "kernel_constraint": null, "activity_regularizer": null, "kernel_size": [3, 3], "dilation_rate": [1, 1], "kernel_initializer": {"class_name": "VarianceScaling", "config": {"scale": 1.0, "distribution": "uniform", "mode": "fan_avg", "seed": null}}, "bias_initializer": {"class_name": "Zeros", "config": {}}, "activation": "linear"}, "inbound_nodes": [[["activation_38", 0, 0, {}]]]}, {"name": "bn4f_branch2b", "class_name": "BatchNormalization", "config": {"momentum": 0.99, "gamma_regularizer": null, "axis": 3, "name": "bn4f_branch2b", "scale": true, "moving_mean_initializer": {"class_name": "Zeros", "config": {}}, "trainable": true, "beta_initializer": {"class_name": "Zeros", "config": {}}, "moving_variance_initializer": {"class_name": "Ones", "config": {}}, "gamma_initializer": {"class_name": "Ones", "config": {}}, "epsilon": 0.001, "gamma_constraint": null, "beta_constraint": null, "center": true, "beta_regularizer": null}, "inbound_nodes": [[["res4f_branch2b", 0, 0, {}]]]}, {"name": "activation_39", "class_name": "Activation", "config": {"name": "activation_39", "activation": "relu", "trainable": true}, "inbound_nodes": [[["bn4f_branch2b", 0, 0, {}]]]}, {"name": "res4f_branch2c", "class_name": "Conv2D", "config": {"filters": 1024, "bias_regularizer": null, "data_format": "channels_last", "kernel_regularizer": null, "use_bias": true, "name": "res4f_branch2c", "padding": "valid", "bias_constraint": null, "strides": [1, 1], "trainable": true, "kernel_constraint": null, "activity_regularizer": null, "kernel_size": [1, 1], "dilation_rate": [1, 1], "kernel_initializer": {"class_name": "VarianceScaling", "config": {"scale": 1.0, "distribution": "uniform", "mode": "fan_avg", "seed": null}}, "bias_initializer": {"class_name": "Zeros", "config": {}}, "activation": "linear"}, "inbound_nodes": [[["activation_39", 0, 0, {}]]]}, {"name": "bn4f_branch2c", "class_name": "BatchNormalization", "config": {"momentum": 0.99, "gamma_regularizer": null, "axis": 3, "name": "bn4f_branch2c", "scale": true, "moving_mean_initializer": {"class_name": "Zeros", "config": {}}, "trainable": true, "beta_initializer": {"class_name": "Zeros", "config": {}}, "moving_variance_initializer": {"class_name": "Ones", "config": {}}, "gamma_initializer": {"class_name": "Ones", "config": {}}, "epsilon": 0.001, "gamma_constraint": null, "beta_constraint": null, "center": true, "beta_regularizer": null}, "inbound_nodes": [[["res4f_branch2c", 0, 0, {}]]]}, {"name": "add_13", "class_name": "Add", "config": {"name": "add_13", "trainable": true}, "inbound_nodes": [[["bn4f_branch2c", 0, 0, {}], ["activation_37", 0, 0, {}]]]}, {"name": "activation_40", "class_name": "Activation", "config": {"name": "activation_40", "activation": "relu", "trainable": true}, "inbound_nodes": [[["add_13", 0, 0, {}]]]}, {"name": "res5a_branch2a", "class_name": "Conv2D", "config": {"filters": 512, "bias_regularizer": null, "data_format": "channels_last", "kernel_regularizer": null, "use_bias": true, "name": "res5a_branch2a", "padding": "valid", "bias_constraint": null, "strides": [2, 2], "trainable": true, "kernel_constraint": null, "activity_regularizer": null, "kernel_size": [1, 1], "dilation_rate": [1, 1], "kernel_initializer": {"class_name": "VarianceScaling", "config": {"scale": 1.0, "distribution": "uniform", "mode": "fan_avg", "seed": null}}, "bias_initializer": {"class_name": "Zeros", "config": {}}, "activation": "linear"}, "inbound_nodes": [[["activation_40", 0, 0, {}]]]}, {"name": "bn5a_branch2a", "class_name": "BatchNormalization", "config": {"momentum": 0.99, "gamma_regularizer": null, "axis": 3, "name": "bn5a_branch2a", "scale": true, "moving_mean_initializer": {"class_name": "Zeros", "config": {}}, "trainable": true, "beta_initializer": {"class_name": "Zeros", "config": {}}, "moving_variance_initializer": {"class_name": "Ones", "config": {}}, "gamma_initializer": {"class_name": "Ones", "config": {}}, "epsilon": 0.001, "gamma_constraint": null, "beta_constraint": null, "center": true, "beta_regularizer": null}, "inbound_nodes": [[["res5a_branch2a", 0, 0, {}]]]}, {"name": "activation_41", "class_name": "Activation", "config": {"name": "activation_41", "activation": "relu", "trainable": true}, "inbound_nodes": [[["bn5a_branch2a", 0, 0, {}]]]}, {"name": "res5a_branch2b", "class_name": "Conv2D", "config": {"filters": 512, "bias_regularizer": null, "data_format": "channels_last", "kernel_regularizer": null, "use_bias": true, "name": "res5a_branch2b", "padding": "same", "bias_constraint": null, "strides": [1, 1], "trainable": true, "kernel_constraint": null, "activity_regularizer": null, "kernel_size": [3, 3], "dilation_rate": [1, 1], "kernel_initializer": {"class_name": "VarianceScaling", "config": {"scale": 1.0, "distribution": "uniform", "mode": "fan_avg", "seed": null}}, "bias_initializer": {"class_name": "Zeros", "config": {}}, "activation": "linear"}, "inbound_nodes": [[["activation_41", 0, 0, {}]]]}, {"name": "bn5a_branch2b", "class_name": "BatchNormalization", "config": {"momentum": 0.99, "gamma_regularizer": null, "axis": 3, "name": "bn5a_branch2b", "scale": true, "moving_mean_initializer": {"class_name": "Zeros", "config": {}}, "trainable": true, "beta_initializer": {"class_name": "Zeros", "config": {}}, "moving_variance_initializer": {"class_name": "Ones", "config": {}}, "gamma_initializer": {"class_name": "Ones", "config": {}}, "epsilon": 0.001, "gamma_constraint": null, "beta_constraint": null, "center": true, "beta_regularizer": null}, "inbound_nodes": [[["res5a_branch2b", 0, 0, {}]]]}, {"name": "activation_42", "class_name": "Activation", "config": {"name": "activation_42", "activation": "relu", "trainable": true}, "inbound_nodes": [[["bn5a_branch2b", 0, 0, {}]]]}, {"name": "res5a_branch2c", "class_name": "Conv2D", "config": {"filters": 2048, "bias_regularizer": null, "data_format": "channels_last", "kernel_regularizer": null, "use_bias": true, "name": "res5a_branch2c", "padding": "valid", "bias_constraint": null, "strides": [1, 1], "trainable": true, "kernel_constraint": null, "activity_regularizer": null, "kernel_size": [1, 1], "dilation_rate": [1, 1], "kernel_initializer": {"class_name": "VarianceScaling", "config": {"scale": 1.0, "distribution": "uniform", "mode": "fan_avg", "seed": null}}, "bias_initializer": {"class_name": "Zeros", "config": {}}, "activation": "linear"}, "inbound_nodes": [[["activation_42", 0, 0, {}]]]}, {"name": "res5a_branch1", "class_name": "Conv2D", "config": {"filters": 2048, "bias_regularizer": null, "data_format": "channels_last", "kernel_regularizer": null, "use_bias": true, "name": "res5a_branch1", "padding": "valid", "bias_constraint": null, "strides": [2, 2], "trainable": true, "kernel_constraint": null, "activity_regularizer": null, "kernel_size": [1, 1], "dilation_rate": [1, 1], "kernel_initializer": {"class_name": "VarianceScaling", "config": {"scale": 1.0, "distribution": "uniform", "mode": "fan_avg", "seed": null}}, "bias_initializer": {"class_name": "Zeros", "config": {}}, "activation": "linear"}, "inbound_nodes": [[["activation_40", 0, 0, {}]]]}, {"name": "bn5a_branch2c", "class_name": "BatchNormalization", "config": {"momentum": 0.99, "gamma_regularizer": null, "axis": 3, "name": "bn5a_branch2c", "scale": true, "moving_mean_initializer": {"class_name": "Zeros", "config": {}}, "trainable": true, "beta_initializer": {"class_name": "Zeros", "config": {}}, "moving_variance_initializer": {"class_name": "Ones", "config": {}}, "gamma_initializer": {"class_name": "Ones", "config": {}}, "epsilon": 0.001, "gamma_constraint": null, "beta_constraint": null, "center": true, "beta_regularizer": null}, "inbound_nodes": [[["res5a_branch2c", 0, 0, {}]]]}, {"name": "bn5a_branch1", "class_name": "BatchNormalization", "config": {"momentum": 0.99, "gamma_regularizer": null, "axis": 3, "name": "bn5a_branch1", "scale": true, "moving_mean_initializer": {"class_name": "Zeros", "config": {}}, "trainable": true, "beta_initializer": {"class_name": "Zeros", "config": {}}, "moving_variance_initializer": {"class_name": "Ones", "config": {}}, "gamma_initializer": {"class_name": "Ones", "config": {}}, "epsilon": 0.001, "gamma_constraint": null, "beta_constraint": null, "center": true, "beta_regularizer": null}, "inbound_nodes": [[["res5a_branch1", 0, 0, {}]]]}, {"name": "add_14", "class_name": "Add", "config": {"name": "add_14", "trainable": true}, "inbound_nodes": [[["bn5a_branch2c", 0, 0, {}], ["bn5a_branch1", 0, 0, {}]]]}, {"name": "activation_43", "class_name": "Activation", "config": {"name": "activation_43", "activation": "relu", "trainable": true}, "inbound_nodes": [[["add_14", 0, 0, {}]]]}, {"name": "res5b_branch2a", "class_name": "Conv2D", "config": {"filters": 512, "bias_regularizer": null, "data_format": "channels_last", "kernel_regularizer": null, "use_bias": true, "name": "res5b_branch2a", "padding": "valid", "bias_constraint": null, "strides": [1, 1], "trainable": true, "kernel_constraint": null, "activity_regularizer": null, "kernel_size": [1, 1], "dilation_rate": [1, 1], "kernel_initializer": {"class_name": "VarianceScaling", "config": {"scale": 1.0, "distribution": "uniform", "mode": "fan_avg", "seed": null}}, "bias_initializer": {"class_name": "Zeros", "config": {}}, "activation": "linear"}, "inbound_nodes": [[["activation_43", 0, 0, {}]]]}, {"name": "bn5b_branch2a", "class_name": "BatchNormalization", "config": {"momentum": 0.99, "gamma_regularizer": null, "axis": 3, "name": "bn5b_branch2a", "scale": true, "moving_mean_initializer": {"class_name": "Zeros", "config": {}}, "trainable": true, "beta_initializer": {"class_name": "Zeros", "config": {}}, "moving_variance_initializer": {"class_name": "Ones", "config": {}}, "gamma_initializer": {"class_name": "Ones", "config": {}}, "epsilon": 0.001, "gamma_constraint": null, "beta_constraint": null, "center": true, "beta_regularizer": null}, "inbound_nodes": [[["res5b_branch2a", 0, 0, {}]]]}, {"name": "activation_44", "class_name": "Activation", "config": {"name": "activation_44", "activation": "relu", "trainable": true}, "inbound_nodes": [[["bn5b_branch2a", 0, 0, {}]]]}, {"name": "res5b_branch2b", "class_name": "Conv2D", "config": {"filters": 512, "bias_regularizer": null, "data_format": "channels_last", "kernel_regularizer": null, "use_bias": true, "name": "res5b_branch2b", "padding": "same", "bias_constraint": null, "strides": [1, 1], "trainable": true, "kernel_constraint": null, "activity_regularizer": null, "kernel_size": [3, 3], "dilation_rate": [1, 1], "kernel_initializer": {"class_name": "VarianceScaling", "config": {"scale": 1.0, "distribution": "uniform", "mode": "fan_avg", "seed": null}}, "bias_initializer": {"class_name": "Zeros", "config": {}}, "activation": "linear"}, "inbound_nodes": [[["activation_44", 0, 0, {}]]]}, {"name": "bn5b_branch2b", "class_name": "BatchNormalization", "config": {"momentum": 0.99, "gamma_regularizer": null, "axis": 3, "name": "bn5b_branch2b", "scale": true, "moving_mean_initializer": {"class_name": "Zeros", "config": {}}, "trainable": true, "beta_initializer": {"class_name": "Zeros", "config": {}}, "moving_variance_initializer": {"class_name": "Ones", "config": {}}, "gamma_initializer": {"class_name": "Ones", "config": {}}, "epsilon": 0.001, "gamma_constraint": null, "beta_constraint": null, "center": true, "beta_regularizer": null}, "inbound_nodes": [[["res5b_branch2b", 0, 0, {}]]]}, {"name": "activation_45", "class_name": "Activation", "config": {"name": "activation_45", "activation": "relu", "trainable": true}, "inbound_nodes": [[["bn5b_branch2b", 0, 0, {}]]]}, {"name": "res5b_branch2c", "class_name": "Conv2D", "config": {"filters": 2048, "bias_regularizer": null, "data_format": "channels_last", "kernel_regularizer": null, "use_bias": true, "name": "res5b_branch2c", "padding": "valid", "bias_constraint": null, "strides": [1, 1], "trainable": true, "kernel_constraint": null, "activity_regularizer": null, "kernel_size": [1, 1], "dilation_rate": [1, 1], "kernel_initializer": {"class_name": "VarianceScaling", "config": {"scale": 1.0, "distribution": "uniform", "mode": "fan_avg", "seed": null}}, "bias_initializer": {"class_name": "Zeros", "config": {}}, "activation": "linear"}, "inbound_nodes": [[["activation_45", 0, 0, {}]]]}, {"name": "bn5b_branch2c", "class_name": "BatchNormalization", "config": {"momentum": 0.99, "gamma_regularizer": null, "axis": 3, "name": "bn5b_branch2c", "scale": true, "moving_mean_initializer": {"class_name": "Zeros", "config": {}}, "trainable": true, "beta_initializer": {"class_name": "Zeros", "config": {}}, "moving_variance_initializer": {"class_name": "Ones", "config": {}}, "gamma_initializer": {"class_name": "Ones", "config": {}}, "epsilon": 0.001, "gamma_constraint": null, "beta_constraint": null, "center": true, "beta_regularizer": null}, "inbound_nodes": [[["res5b_branch2c", 0, 0, {}]]]}, {"name": "add_15", "class_name": "Add", "config": {"name": "add_15", "trainable": true}, "inbound_nodes": [[["bn5b_branch2c", 0, 0, {}], ["activation_43", 0, 0, {}]]]}, {"name": "activation_46", "class_name": "Activation", "config": {"name": "activation_46", "activation": "relu", "trainable": true}, "inbound_nodes": [[["add_15", 0, 0, {}]]]}, {"name": "res5c_branch2a", "class_name": "Conv2D", "config": {"filters": 512, "bias_regularizer": null, "data_format": "channels_last", "kernel_regularizer": null, "use_bias": true, "name": "res5c_branch2a", "padding": "valid", "bias_constraint": null, "strides": [1, 1], "trainable": true, "kernel_constraint": null, "activity_regularizer": null, "kernel_size": [1, 1], "dilation_rate": [1, 1], "kernel_initializer": {"class_name": "VarianceScaling", "config": {"scale": 1.0, "distribution": "uniform", "mode": "fan_avg", "seed": null}}, "bias_initializer": {"class_name": "Zeros", "config": {}}, "activation": "linear"}, "inbound_nodes": [[["activation_46", 0, 0, {}]]]}, {"name": "bn5c_branch2a", "class_name": "BatchNormalization", "config": {"momentum": 0.99, "gamma_regularizer": null, "axis": 3, "name": "bn5c_branch2a", "scale": true, "moving_mean_initializer": {"class_name": "Zeros", "config": {}}, "trainable": true, "beta_initializer": {"class_name": "Zeros", "config": {}}, "moving_variance_initializer": {"class_name": "Ones", "config": {}}, "gamma_initializer": {"class_name": "Ones", "config": {}}, "epsilon": 0.001, "gamma_constraint": null, "beta_constraint": null, "center": true, "beta_regularizer": null}, "inbound_nodes": [[["res5c_branch2a", 0, 0, {}]]]}, {"name": "activation_47", "class_name": "Activation", "config": {"name": "activation_47", "activation": "relu", "trainable": true}, "inbound_nodes": [[["bn5c_branch2a", 0, 0, {}]]]}, {"name": "res5c_branch2b", "class_name": "Conv2D", "config": {"filters": 512, "bias_regularizer": null, "data_format": "channels_last", "kernel_regularizer": null, "use_bias": true, "name": "res5c_branch2b", "padding": "same", "bias_constraint": null, "strides": [1, 1], "trainable": true, "kernel_constraint": null, "activity_regularizer": null, "kernel_size": [3, 3], "dilation_rate": [1, 1], "kernel_initializer": {"class_name": "VarianceScaling", "config": {"scale": 1.0, "distribution": "uniform", "mode": "fan_avg", "seed": null}}, "bias_initializer": {"class_name": "Zeros", "config": {}}, "activation": "linear"}, "inbound_nodes": [[["activation_47", 0, 0, {}]]]}, {"name": "bn5c_branch2b", "class_name": "BatchNormalization", "config": {"momentum": 0.99, "gamma_regularizer": null, "axis": 3, "name": "bn5c_branch2b", "scale": true, "moving_mean_initializer": {"class_name": "Zeros", "config": {}}, "trainable": true, "beta_initializer": {"class_name": "Zeros", "config": {}}, "moving_variance_initializer": {"class_name": "Ones", "config": {}}, "gamma_initializer": {"class_name": "Ones", "config": {}}, "epsilon": 0.001, "gamma_constraint": null, "beta_constraint": null, "center": true, "beta_regularizer": null}, "inbound_nodes": [[["res5c_branch2b", 0, 0, {}]]]}, {"name": "activation_48", "class_name": "Activation", "config": {"name": "activation_48", "activation": "relu", "trainable": true}, "inbound_nodes": [[["bn5c_branch2b", 0, 0, {}]]]}, {"name": "res5c_branch2c", "class_name": "Conv2D", "config": {"filters": 2048, "bias_regularizer": null, "data_format": "channels_last", "kernel_regularizer": null, "use_bias": true, "name": "res5c_branch2c", "padding": "valid", "bias_constraint": null, "strides": [1, 1], "trainable": true, "kernel_constraint": null, "activity_regularizer": null, "kernel_size": [1, 1], "dilation_rate": [1, 1], "kernel_initializer": {"class_name": "VarianceScaling", "config": {"scale": 1.0, "distribution": "uniform", "mode": "fan_avg", "seed": null}}, "bias_initializer": {"class_name": "Zeros", "config": {}}, "activation": "linear"}, "inbound_nodes": [[["activation_48", 0, 0, {}]]]}, {"name": "bn5c_branch2c", "class_name": "BatchNormalization", "config": {"momentum": 0.99, "gamma_regularizer": null, "axis": 3, "name": "bn5c_branch2c", "scale": true, "moving_mean_initializer": {"class_name": "Zeros", "config": {}}, "trainable": true, "beta_initializer": {"class_name": "Zeros", "config": {}}, "moving_variance_initializer": {"class_name": "Ones", "config": {}}, "gamma_initializer": {"class_name": "Ones", "config": {}}, "epsilon": 0.001, "gamma_constraint": null, "beta_constraint": null, "center": true, "beta_regularizer": null}, "inbound_nodes": [[["res5c_branch2c", 0, 0, {}]]]}, {"name": "add_16", "class_name": "Add", "config": {"name": "add_16", "trainable": true}, "inbound_nodes": [[["bn5c_branch2c", 0, 0, {}], ["activation_46", 0, 0, {}]]]}, {"name": "activation_49", "class_name": "Activation", "config": {"name": "activation_49", "activation": "relu", "trainable": true}, "inbound_nodes": [[["add_16", 0, 0, {}]]]}, {"name": "global_max_pooling2d_1", "class_name": "GlobalMaxPooling2D", "config": {"name": "global_max_pooling2d_1", "data_format": "channels_last", "trainable": true}, "inbound_nodes": [[["activation_49", 0, 0, {}]]]}, {"name": "dense_1", "class_name": "Dense", "config": {"kernel_regularizer": null, "use_bias": false, "name": "dense_1", "bias_constraint": null, "units": 256, "activation": "linear", "trainable": true, "kernel_constraint": null, "activity_regularizer": null, "bias_regularizer": null, "kernel_initializer": {"class_name": "VarianceScaling", "config": {"scale": 1.0, "distribution": "uniform", "mode": "fan_avg", "seed": null}}, "bias_initializer": {"class_name": "Zeros", "config": {}}}, "inbound_nodes": [[["global_max_pooling2d_1", 0, 0, {}]]]}]}}, "keras_version": "2.2.0", "backend": "tensorflow"}, "weightsManifest": [{"weights": [{"name": "bn2a_branch1/gamma", "shape": [256], "dtype": "float32"}, {"name": "bn2a_branch1/beta", "shape": [256], "dtype": "float32"}, {"name": "bn2a_branch1/moving_mean", "shape": [256], "dtype": "float32"}, {"name": "bn2a_branch1/moving_variance", "shape": [256], "dtype": "float32"}], "paths": ["group1-shard1of1"]}, {"weights": [{"name": "bn2a_branch2a/gamma", "shape": [64], "dtype": "float32"}, {"name": "bn2a_branch2a/beta", "shape": [64], "dtype": "float32"}, {"name": "bn2a_branch2a/moving_mean", "shape": [64], "dtype": "float32"}, {"name": "bn2a_branch2a/moving_variance", "shape": [64], "dtype": "float32"}], "paths": ["group2-shard1of1"]}, {"weights": [{"name": "bn2a_branch2b/gamma", "shape": [64], "dtype": "float32"}, {"name": "bn2a_branch2b/beta", "shape": [64], "dtype": "float32"}, {"name": "bn2a_branch2b/moving_mean", "shape": [64], "dtype": "float32"}, {"name": "bn2a_branch2b/moving_variance", "shape": [64], "dtype": "float32"}], "paths": ["group3-shard1of1"]}, {"weights": [{"name": "bn2a_branch2c/gamma", "shape": [256], "dtype": "float32"}, {"name": "bn2a_branch2c/beta", "shape": [256], "dtype": "float32"}, {"name": "bn2a_branch2c/moving_mean", "shape": [256], "dtype": "float32"}, {"name": "bn2a_branch2c/moving_variance", "shape": [256], "dtype": "float32"}], "paths": ["group4-shard1of1"]}, {"weights": [{"name": "bn2b_branch2a/gamma", "shape": [64], "dtype": "float32"}, {"name": "bn2b_branch2a/beta", "shape": [64], "dtype": "float32"}, {"name": "bn2b_branch2a/moving_mean", "shape": [64], "dtype": "float32"}, {"name": "bn2b_branch2a/moving_variance", "shape": [64], "dtype": "float32"}], "paths": ["group5-shard1of1"]}, {"weights": [{"name": "bn2b_branch2b/gamma", "shape": [64], "dtype": "float32"}, {"name": "bn2b_branch2b/beta", "shape": [64], "dtype": "float32"}, {"name": "bn2b_branch2b/moving_mean", "shape": [64], "dtype": "float32"}, {"name": "bn2b_branch2b/moving_variance", "shape": [64], "dtype": "float32"}], "paths": ["group6-shard1of1"]}, {"weights": [{"name": "bn2b_branch2c/gamma", "shape": [256], "dtype": "float32"}, {"name": "bn2b_branch2c/beta", "shape": [256], "dtype": "float32"}, {"name": "bn2b_branch2c/moving_mean", "shape": [256], "dtype": "float32"}, {"name": "bn2b_branch2c/moving_variance", "shape": [256], "dtype": "float32"}], "paths": ["group7-shard1of1"]}, {"weights": [{"name": "bn2c_branch2a/gamma", "shape": [64], "dtype": "float32"}, {"name": "bn2c_branch2a/beta", "shape": [64], "dtype": "float32"}, {"name": "bn2c_branch2a/moving_mean", "shape": [64], "dtype": "float32"}, {"name": "bn2c_branch2a/moving_variance", "shape": [64], "dtype": "float32"}], "paths": ["group8-shard1of1"]}, {"weights": [{"name": "bn2c_branch2b/gamma", "shape": [64], "dtype": "float32"}, {"name": "bn2c_branch2b/beta", "shape": [64], "dtype": "float32"}, {"name": "bn2c_branch2b/moving_mean", "shape": [64], "dtype": "float32"}, {"name": "bn2c_branch2b/moving_variance", "shape": [64], "dtype": "float32"}], "paths": ["group9-shard1of1"]}, {"weights": [{"name": "bn2c_branch2c/gamma", "shape": [256], "dtype": "float32"}, {"name": "bn2c_branch2c/beta", "shape": [256], "dtype": "float32"}, {"name": "bn2c_branch2c/moving_mean", "shape": [256], "dtype": "float32"}, {"name": "bn2c_branch2c/moving_variance", "shape": [256], "dtype": "float32"}], "paths": ["group10-shard1of1"]}, {"weights": [{"name": "bn3a_branch1/gamma", "shape": [512], "dtype": "float32"}, {"name": "bn3a_branch1/beta", "shape": [512], "dtype": "float32"}, {"name": "bn3a_branch1/moving_mean", "shape": [512], "dtype": "float32"}, {"name": "bn3a_branch1/moving_variance", "shape": [512], "dtype": "float32"}], "paths": ["group11-shard1of1"]}, {"weights": [{"name": "bn3a_branch2a/gamma", "shape": [128], "dtype": "float32"}, {"name": "bn3a_branch2a/beta", "shape": [128], "dtype": "float32"}, {"name": "bn3a_branch2a/moving_mean", "shape": [128], "dtype": "float32"}, {"name": "bn3a_branch2a/moving_variance", "shape": [128], "dtype": "float32"}], "paths": ["group12-shard1of1"]}, {"weights": [{"name": "bn3a_branch2b/gamma", "shape": [128], "dtype": "float32"}, {"name": "bn3a_branch2b/beta", "shape": [128], "dtype": "float32"}, {"name": "bn3a_branch2b/moving_mean", "shape": [128], "dtype": "float32"}, {"name": "bn3a_branch2b/moving_variance", "shape": [128], "dtype": "float32"}], "paths": ["group13-shard1of1"]}, {"weights": [{"name": "bn3a_branch2c/gamma", "shape": [512], "dtype": "float32"}, {"name": "bn3a_branch2c/beta", "shape": [512], "dtype": "float32"}, {"name": "bn3a_branch2c/moving_mean", "shape": [512], "dtype": "float32"}, {"name": "bn3a_branch2c/moving_variance", "shape": [512], "dtype": "float32"}], "paths": ["group14-shard1of1"]}, {"weights": [{"name": "bn3b_branch2a/gamma", "shape": [128], "dtype": "float32"}, {"name": "bn3b_branch2a/beta", "shape": [128], "dtype": "float32"}, {"name": "bn3b_branch2a/moving_mean", "shape": [128], "dtype": "float32"}, {"name": "bn3b_branch2a/moving_variance", "shape": [128], "dtype": "float32"}], "paths": ["group15-shard1of1"]}, {"weights": [{"name": "bn3b_branch2b/gamma", "shape": [128], "dtype": "float32"}, {"name": "bn3b_branch2b/beta", "shape": [128], "dtype": "float32"}, {"name": "bn3b_branch2b/moving_mean", "shape": [128], "dtype": "float32"}, {"name": "bn3b_branch2b/moving_variance", "shape": [128], "dtype": "float32"}], "paths": ["group16-shard1of1"]}, {"weights": [{"name": "bn3b_branch2c/gamma", "shape": [512], "dtype": "float32"}, {"name": "bn3b_branch2c/beta", "shape": [512], "dtype": "float32"}, {"name": "bn3b_branch2c/moving_mean", "shape": [512], "dtype": "float32"}, {"name": "bn3b_branch2c/moving_variance", "shape": [512], "dtype": "float32"}], "paths": ["group17-shard1of1"]}, {"weights": [{"name": "bn3c_branch2a/gamma", "shape": [128], "dtype": "float32"}, {"name": "bn3c_branch2a/beta", "shape": [128], "dtype": "float32"}, {"name": "bn3c_branch2a/moving_mean", "shape": [128], "dtype": "float32"}, {"name": "bn3c_branch2a/moving_variance", "shape": [128], "dtype": "float32"}], "paths": ["group18-shard1of1"]}, {"weights": [{"name": "bn3c_branch2b/gamma", "shape": [128], "dtype": "float32"}, {"name": "bn3c_branch2b/beta", "shape": [128], "dtype": "float32"}, {"name": "bn3c_branch2b/moving_mean", "shape": [128], "dtype": "float32"}, {"name": "bn3c_branch2b/moving_variance", "shape": [128], "dtype": "float32"}], "paths": ["group19-shard1of1"]}, {"weights": [{"name": "bn3c_branch2c/gamma", "shape": [512], "dtype": "float32"}, {"name": "bn3c_branch2c/beta", "shape": [512], "dtype": "float32"}, {"name": "bn3c_branch2c/moving_mean", "shape": [512], "dtype": "float32"}, {"name": "bn3c_branch2c/moving_variance", "shape": [512], "dtype": "float32"}], "paths": ["group20-shard1of1"]}, {"weights": [{"name": "bn3d_branch2a/gamma", "shape": [128], "dtype": "float32"}, {"name": "bn3d_branch2a/beta", "shape": [128], "dtype": "float32"}, {"name": "bn3d_branch2a/moving_mean", "shape": [128], "dtype": "float32"}, {"name": "bn3d_branch2a/moving_variance", "shape": [128], "dtype": "float32"}], "paths": ["group21-shard1of1"]}, {"weights": [{"name": "bn3d_branch2b/gamma", "shape": [128], "dtype": "float32"}, {"name": "bn3d_branch2b/beta", "shape": [128], "dtype": "float32"}, {"name": "bn3d_branch2b/moving_mean", "shape": [128], "dtype": "float32"}, {"name": "bn3d_branch2b/moving_variance", "shape": [128], "dtype": "float32"}], "paths": ["group22-shard1of1"]}, {"weights": [{"name": "bn3d_branch2c/gamma", "shape": [512], "dtype": "float32"}, {"name": "bn3d_branch2c/beta", "shape": [512], "dtype": "float32"}, {"name": "bn3d_branch2c/moving_mean", "shape": [512], "dtype": "float32"}, {"name": "bn3d_branch2c/moving_variance", "shape": [512], "dtype": "float32"}], "paths": ["group23-shard1of1"]}, {"weights": [{"name": "bn4a_branch1/gamma", "shape": [1024], "dtype": "float32"}, {"name": "bn4a_branch1/beta", "shape": [1024], "dtype": "float32"}, {"name": "bn4a_branch1/moving_mean", "shape": [1024], "dtype": "float32"}, {"name": "bn4a_branch1/moving_variance", "shape": [1024], "dtype": "float32"}], "paths": ["group24-shard1of1"]}, {"weights": [{"name": "bn4a_branch2a/gamma", "shape": [256], "dtype": "float32"}, {"name": "bn4a_branch2a/beta", "shape": [256], "dtype": "float32"}, {"name": "bn4a_branch2a/moving_mean", "shape": [256], "dtype": "float32"}, {"name": "bn4a_branch2a/moving_variance", "shape": [256], "dtype": "float32"}], "paths": ["group25-shard1of1"]}, {"weights": [{"name": "bn4a_branch2b/gamma", "shape": [256], "dtype": "float32"}, {"name": "bn4a_branch2b/beta", "shape": [256], "dtype": "float32"}, {"name": "bn4a_branch2b/moving_mean", "shape": [256], "dtype": "float32"}, {"name": "bn4a_branch2b/moving_variance", "shape": [256], "dtype": "float32"}], "paths": ["group26-shard1of1"]}, {"weights": [{"name": "bn4a_branch2c/gamma", "shape": [1024], "dtype": "float32"}, {"name": "bn4a_branch2c/beta", "shape": [1024], "dtype": "float32"}, {"name": "bn4a_branch2c/moving_mean", "shape": [1024], "dtype": "float32"}, {"name": "bn4a_branch2c/moving_variance", "shape": [1024], "dtype": "float32"}], "paths": ["group27-shard1of1"]}, {"weights": [{"name": "bn4b_branch2a/gamma", "shape": [256], "dtype": "float32"}, {"name": "bn4b_branch2a/beta", "shape": [256], "dtype": "float32"}, {"name": "bn4b_branch2a/moving_mean", "shape": [256], "dtype": "float32"}, {"name": "bn4b_branch2a/moving_variance", "shape": [256], "dtype": "float32"}], "paths": ["group28-shard1of1"]}, {"weights": [{"name": "bn4b_branch2b/gamma", "shape": [256], "dtype": "float32"}, {"name": "bn4b_branch2b/beta", "shape": [256], "dtype": "float32"}, {"name": "bn4b_branch2b/moving_mean", "shape": [256], "dtype": "float32"}, {"name": "bn4b_branch2b/moving_variance", "shape": [256], "dtype": "float32"}], "paths": ["group29-shard1of1"]}, {"weights": [{"name": "bn4b_branch2c/gamma", "shape": [1024], "dtype": "float32"}, {"name": "bn4b_branch2c/beta", "shape": [1024], "dtype": "float32"}, {"name": "bn4b_branch2c/moving_mean", "shape": [1024], "dtype": "float32"}, {"name": "bn4b_branch2c/moving_variance", "shape": [1024], "dtype": "float32"}], "paths": ["group30-shard1of1"]}, {"weights": [{"name": "bn4c_branch2a/gamma", "shape": [256], "dtype": "float32"}, {"name": "bn4c_branch2a/beta", "shape": [256], "dtype": "float32"}, {"name": "bn4c_branch2a/moving_mean", "shape": [256], "dtype": "float32"}, {"name": "bn4c_branch2a/moving_variance", "shape": [256], "dtype": "float32"}], "paths": ["group31-shard1of1"]}, {"weights": [{"name": "bn4c_branch2b/gamma", "shape": [256], "dtype": "float32"}, {"name": "bn4c_branch2b/beta", "shape": [256], "dtype": "float32"}, {"name": "bn4c_branch2b/moving_mean", "shape": [256], "dtype": "float32"}, {"name": "bn4c_branch2b/moving_variance", "shape": [256], "dtype": "float32"}], "paths": ["group32-shard1of1"]}, {"weights": [{"name": "bn4c_branch2c/gamma", "shape": [1024], "dtype": "float32"}, {"name": "bn4c_branch2c/beta", "shape": [1024], "dtype": "float32"}, {"name": "bn4c_branch2c/moving_mean", "shape": [1024], "dtype": "float32"}, {"name": "bn4c_branch2c/moving_variance", "shape": [1024], "dtype": "float32"}], "paths": ["group33-shard1of1"]}, {"weights": [{"name": "bn4d_branch2a/gamma", "shape": [256], "dtype": "float32"}, {"name": "bn4d_branch2a/beta", "shape": [256], "dtype": "float32"}, {"name": "bn4d_branch2a/moving_mean", "shape": [256], "dtype": "float32"}, {"name": "bn4d_branch2a/moving_variance", "shape": [256], "dtype": "float32"}], "paths": ["group34-shard1of1"]}, {"weights": [{"name": "bn4d_branch2b/gamma", "shape": [256], "dtype": "float32"}, {"name": "bn4d_branch2b/beta", "shape": [256], "dtype": "float32"}, {"name": "bn4d_branch2b/moving_mean", "shape": [256], "dtype": "float32"}, {"name": "bn4d_branch2b/moving_variance", "shape": [256], "dtype": "float32"}], "paths": ["group35-shard1of1"]}, {"weights": [{"name": "bn4d_branch2c/gamma", "shape": [1024], "dtype": "float32"}, {"name": "bn4d_branch2c/beta", "shape": [1024], "dtype": "float32"}, {"name": "bn4d_branch2c/moving_mean", "shape": [1024], "dtype": "float32"}, {"name": "bn4d_branch2c/moving_variance", "shape": [1024], "dtype": "float32"}], "paths": ["group36-shard1of1"]}, {"weights": [{"name": "bn4e_branch2a/gamma", "shape": [256], "dtype": "float32"}, {"name": "bn4e_branch2a/beta", "shape": [256], "dtype": "float32"}, {"name": "bn4e_branch2a/moving_mean", "shape": [256], "dtype": "float32"}, {"name": "bn4e_branch2a/moving_variance", "shape": [256], "dtype": "float32"}], "paths": ["group37-shard1of1"]}, {"weights": [{"name": "bn4e_branch2b/gamma", "shape": [256], "dtype": "float32"}, {"name": "bn4e_branch2b/beta", "shape": [256], "dtype": "float32"}, {"name": "bn4e_branch2b/moving_mean", "shape": [256], "dtype": "float32"}, {"name": "bn4e_branch2b/moving_variance", "shape": [256], "dtype": "float32"}], "paths": ["group38-shard1of1"]}, {"weights": [{"name": "bn4e_branch2c/gamma", "shape": [1024], "dtype": "float32"}, {"name": "bn4e_branch2c/beta", "shape": [1024], "dtype": "float32"}, {"name": "bn4e_branch2c/moving_mean", "shape": [1024], "dtype": "float32"}, {"name": "bn4e_branch2c/moving_variance", "shape": [1024], "dtype": "float32"}], "paths": ["group39-shard1of1"]}, {"weights": [{"name": "bn4f_branch2a/gamma", "shape": [256], "dtype": "float32"}, {"name": "bn4f_branch2a/beta", "shape": [256], "dtype": "float32"}, {"name": "bn4f_branch2a/moving_mean", "shape": [256], "dtype": "float32"}, {"name": "bn4f_branch2a/moving_variance", "shape": [256], "dtype": "float32"}], "paths": ["group40-shard1of1"]}, {"weights": [{"name": "bn4f_branch2b/gamma", "shape": [256], "dtype": "float32"}, {"name": "bn4f_branch2b/beta", "shape": [256], "dtype": "float32"}, {"name": "bn4f_branch2b/moving_mean", "shape": [256], "dtype": "float32"}, {"name": "bn4f_branch2b/moving_variance", "shape": [256], "dtype": "float32"}], "paths": ["group41-shard1of1"]}, {"weights": [{"name": "bn4f_branch2c/gamma", "shape": [1024], "dtype": "float32"}, {"name": "bn4f_branch2c/beta", "shape": [1024], "dtype": "float32"}, {"name": "bn4f_branch2c/moving_mean", "shape": [1024], "dtype": "float32"}, {"name": "bn4f_branch2c/moving_variance", "shape": [1024], "dtype": "float32"}], "paths": ["group42-shard1of1"]}, {"weights": [{"name": "bn5a_branch1/gamma", "shape": [2048], "dtype": "float32"}, {"name": "bn5a_branch1/beta", "shape": [2048], "dtype": "float32"}, {"name": "bn5a_branch1/moving_mean", "shape": [2048], "dtype": "float32"}, {"name": "bn5a_branch1/moving_variance", "shape": [2048], "dtype": "float32"}], "paths": ["group43-shard1of1"]}, {"weights": [{"name": "bn5a_branch2a/gamma", "shape": [512], "dtype": "float32"}, {"name": "bn5a_branch2a/beta", "shape": [512], "dtype": "float32"}, {"name": "bn5a_branch2a/moving_mean", "shape": [512], "dtype": "float32"}, {"name": "bn5a_branch2a/moving_variance", "shape": [512], "dtype": "float32"}], "paths": ["group44-shard1of1"]}, {"weights": [{"name": "bn5a_branch2b/gamma", "shape": [512], "dtype": "float32"}, {"name": "bn5a_branch2b/beta", "shape": [512], "dtype": "float32"}, {"name": "bn5a_branch2b/moving_mean", "shape": [512], "dtype": "float32"}, {"name": "bn5a_branch2b/moving_variance", "shape": [512], "dtype": "float32"}], "paths": ["group45-shard1of1"]}, {"weights": [{"name": "bn5a_branch2c/gamma", "shape": [2048], "dtype": "float32"}, {"name": "bn5a_branch2c/beta", "shape": [2048], "dtype": "float32"}, {"name": "bn5a_branch2c/moving_mean", "shape": [2048], "dtype": "float32"}, {"name": "bn5a_branch2c/moving_variance", "shape": [2048], "dtype": "float32"}], "paths": ["group46-shard1of1"]}, {"weights": [{"name": "bn5b_branch2a/gamma", "shape": [512], "dtype": "float32"}, {"name": "bn5b_branch2a/beta", "shape": [512], "dtype": "float32"}, {"name": "bn5b_branch2a/moving_mean", "shape": [512], "dtype": "float32"}, {"name": "bn5b_branch2a/moving_variance", "shape": [512], "dtype": "float32"}], "paths": ["group47-shard1of1"]}, {"weights": [{"name": "bn5b_branch2b/gamma", "shape": [512], "dtype": "float32"}, {"name": "bn5b_branch2b/beta", "shape": [512], "dtype": "float32"}, {"name": "bn5b_branch2b/moving_mean", "shape": [512], "dtype": "float32"}, {"name": "bn5b_branch2b/moving_variance", "shape": [512], "dtype": "float32"}], "paths": ["group48-shard1of1"]}, {"weights": [{"name": "bn5b_branch2c/gamma", "shape": [2048], "dtype": "float32"}, {"name": "bn5b_branch2c/beta", "shape": [2048], "dtype": "float32"}, {"name": "bn5b_branch2c/moving_mean", "shape": [2048], "dtype": "float32"}, {"name": "bn5b_branch2c/moving_variance", "shape": [2048], "dtype": "float32"}], "paths": ["group49-shard1of1"]}, {"weights": [{"name": "bn5c_branch2a/gamma", "shape": [512], "dtype": "float32"}, {"name": "bn5c_branch2a/beta", "shape": [512], "dtype": "float32"}, {"name": "bn5c_branch2a/moving_mean", "shape": [512], "dtype": "float32"}, {"name": "bn5c_branch2a/moving_variance", "shape": [512], "dtype": "float32"}], "paths": ["group50-shard1of1"]}, {"weights": [{"name": "bn5c_branch2b/gamma", "shape": [512], "dtype": "float32"}, {"name": "bn5c_branch2b/beta", "shape": [512], "dtype": "float32"}, {"name": "bn5c_branch2b/moving_mean", "shape": [512], "dtype": "float32"}, {"name": "bn5c_branch2b/moving_variance", "shape": [512], "dtype": "float32"}], "paths": ["group51-shard1of1"]}, {"weights": [{"name": "bn5c_branch2c/gamma", "shape": [2048], "dtype": "float32"}, {"name": "bn5c_branch2c/beta", "shape": [2048], "dtype": "float32"}, {"name": "bn5c_branch2c/moving_mean", "shape": [2048], "dtype": "float32"}, {"name": "bn5c_branch2c/moving_variance", "shape": [2048], "dtype": "float32"}], "paths": ["group52-shard1of1"]}, {"weights": [{"name": "bn_conv1/gamma", "shape": [64], "dtype": "float32"}, {"name": "bn_conv1/beta", "shape": [64], "dtype": "float32"}, {"name": "bn_conv1/moving_mean", "shape": [64], "dtype": "float32"}, {"name": "bn_conv1/moving_variance", "shape": [64], "dtype": "float32"}], "paths": ["group53-shard1of1"]}, {"weights": [{"name": "conv1/kernel", "shape": [7, 7, 3, 64], "dtype": "float32"}, {"name": "conv1/bias", "shape": [64], "dtype": "float32"}], "paths": ["group54-shard1of1"]}, {"weights": [{"name": "dense_1/kernel", "shape": [2048, 256], "dtype": "float32"}], "paths": ["group55-shard1of1"]}, {"weights": [{"name": "res2a_branch1/kernel", "shape": [1, 1, 64, 256], "dtype": "float32"}, {"name": "res2a_branch1/bias", "shape": [256], "dtype": "float32"}], "paths": ["group56-shard1of1"]}, {"weights": [{"name": "res2a_branch2a/kernel", "shape": [1, 1, 64, 64], "dtype": "float32"}, {"name": "res2a_branch2a/bias", "shape": [64], "dtype": "float32"}], "paths": ["group57-shard1of1"]}, {"weights": [{"name": "res2a_branch2b/kernel", "shape": [3, 3, 64, 64], "dtype": "float32"}, {"name": "res2a_branch2b/bias", "shape": [64], "dtype": "float32"}], "paths": ["group58-shard1of1"]}, {"weights": [{"name": "res2a_branch2c/kernel", "shape": [1, 1, 64, 256], "dtype": "float32"}, {"name": "res2a_branch2c/bias", "shape": [256], "dtype": "float32"}], "paths": ["group59-shard1of1"]}, {"weights": [{"name": "res2b_branch2a/kernel", "shape": [1, 1, 256, 64], "dtype": "float32"}, {"name": "res2b_branch2a/bias", "shape": [64], "dtype": "float32"}], "paths": ["group60-shard1of1"]}, {"weights": [{"name": "res2b_branch2b/kernel", "shape": [3, 3, 64, 64], "dtype": "float32"}, {"name": "res2b_branch2b/bias", "shape": [64], "dtype": "float32"}], "paths": ["group61-shard1of1"]}, {"weights": [{"name": "res2b_branch2c/kernel", "shape": [1, 1, 64, 256], "dtype": "float32"}, {"name": "res2b_branch2c/bias", "shape": [256], "dtype": "float32"}], "paths": ["group62-shard1of1"]}, {"weights": [{"name": "res2c_branch2a/kernel", "shape": [1, 1, 256, 64], "dtype": "float32"}, {"name": "res2c_branch2a/bias", "shape": [64], "dtype": "float32"}], "paths": ["group63-shard1of1"]}, {"weights": [{"name": "res2c_branch2b/kernel", "shape": [3, 3, 64, 64], "dtype": "float32"}, {"name": "res2c_branch2b/bias", "shape": [64], "dtype": "float32"}], "paths": ["group64-shard1of1"]}, {"weights": [{"name": "res2c_branch2c/kernel", "shape": [1, 1, 64, 256], "dtype": "float32"}, {"name": "res2c_branch2c/bias", "shape": [256], "dtype": "float32"}], "paths": ["group65-shard1of1"]}, {"weights": [{"name": "res3a_branch1/kernel", "shape": [1, 1, 256, 512], "dtype": "float32"}, {"name": "res3a_branch1/bias", "shape": [512], "dtype": "float32"}], "paths": ["group66-shard1of1"]}, {"weights": [{"name": "res3a_branch2a/kernel", "shape": [1, 1, 256, 128], "dtype": "float32"}, {"name": "res3a_branch2a/bias", "shape": [128], "dtype": "float32"}], "paths": ["group67-shard1of1"]}, {"weights": [{"name": "res3a_branch2b/kernel", "shape": [3, 3, 128, 128], "dtype": "float32"}, {"name": "res3a_branch2b/bias", "shape": [128], "dtype": "float32"}], "paths": ["group68-shard1of1"]}, {"weights": [{"name": "res3a_branch2c/kernel", "shape": [1, 1, 128, 512], "dtype": "float32"}, {"name": "res3a_branch2c/bias", "shape": [512], "dtype": "float32"}], "paths": ["group69-shard1of1"]}, {"weights": [{"name": "res3b_branch2a/kernel", "shape": [1, 1, 512, 128], "dtype": "float32"}, {"name": "res3b_branch2a/bias", "shape": [128], "dtype": "float32"}], "paths": ["group70-shard1of1"]}, {"weights": [{"name": "res3b_branch2b/kernel", "shape": [3, 3, 128, 128], "dtype": "float32"}, {"name": "res3b_branch2b/bias", "shape": [128], "dtype": "float32"}], "paths": ["group71-shard1of1"]}, {"weights": [{"name": "res3b_branch2c/kernel", "shape": [1, 1, 128, 512], "dtype": "float32"}, {"name": "res3b_branch2c/bias", "shape": [512], "dtype": "float32"}], "paths": ["group72-shard1of1"]}, {"weights": [{"name": "res3c_branch2a/kernel", "shape": [1, 1, 512, 128], "dtype": "float32"}, {"name": "res3c_branch2a/bias", "shape": [128], "dtype": "float32"}], "paths": ["group73-shard1of1"]}, {"weights": [{"name": "res3c_branch2b/kernel", "shape": [3, 3, 128, 128], "dtype": "float32"}, {"name": "res3c_branch2b/bias", "shape": [128], "dtype": "float32"}], "paths": ["group74-shard1of1"]}, {"weights": [{"name": "res3c_branch2c/kernel", "shape": [1, 1, 128, 512], "dtype": "float32"}, {"name": "res3c_branch2c/bias", "shape": [512], "dtype": "float32"}], "paths": ["group75-shard1of1"]}, {"weights": [{"name": "res3d_branch2a/kernel", "shape": [1, 1, 512, 128], "dtype": "float32"}, {"name": "res3d_branch2a/bias", "shape": [128], "dtype": "float32"}], "paths": ["group76-shard1of1"]}, {"weights": [{"name": "res3d_branch2b/kernel", "shape": [3, 3, 128, 128], "dtype": "float32"}, {"name": "res3d_branch2b/bias", "shape": [128], "dtype": "float32"}], "paths": ["group77-shard1of1"]}, {"weights": [{"name": "res3d_branch2c/kernel", "shape": [1, 1, 128, 512], "dtype": "float32"}, {"name": "res3d_branch2c/bias", "shape": [512], "dtype": "float32"}], "paths": ["group78-shard1of1"]}, {"weights": [{"name": "res4a_branch1/kernel", "shape": [1, 1, 512, 1024], "dtype": "float32"}, {"name": "res4a_branch1/bias", "shape": [1024], "dtype": "float32"}], "paths": ["group79-shard1of1"]}, {"weights": [{"name": "res4a_branch2a/kernel", "shape": [1, 1, 512, 256], "dtype": "float32"}, {"name": "res4a_branch2a/bias", "shape": [256], "dtype": "float32"}], "paths": ["group80-shard1of1"]}, {"weights": [{"name": "res4a_branch2b/kernel", "shape": [3, 3, 256, 256], "dtype": "float32"}, {"name": "res4a_branch2b/bias", "shape": [256], "dtype": "float32"}], "paths": ["group81-shard1of1"]}, {"weights": [{"name": "res4a_branch2c/kernel", "shape": [1, 1, 256, 1024], "dtype": "float32"}, {"name": "res4a_branch2c/bias", "shape": [1024], "dtype": "float32"}], "paths": ["group82-shard1of1"]}, {"weights": [{"name": "res4b_branch2a/kernel", "shape": [1, 1, 1024, 256], "dtype": "float32"}, {"name": "res4b_branch2a/bias", "shape": [256], "dtype": "float32"}], "paths": ["group83-shard1of1"]}, {"weights": [{"name": "res4b_branch2b/kernel", "shape": [3, 3, 256, 256], "dtype": "float32"}, {"name": "res4b_branch2b/bias", "shape": [256], "dtype": "float32"}], "paths": ["group84-shard1of1"]}, {"weights": [{"name": "res4b_branch2c/kernel", "shape": [1, 1, 256, 1024], "dtype": "float32"}, {"name": "res4b_branch2c/bias", "shape": [1024], "dtype": "float32"}], "paths": ["group85-shard1of1"]}, {"weights": [{"name": "res4c_branch2a/kernel", "shape": [1, 1, 1024, 256], "dtype": "float32"}, {"name": "res4c_branch2a/bias", "shape": [256], "dtype": "float32"}], "paths": ["group86-shard1of1"]}, {"weights": [{"name": "res4c_branch2b/kernel", "shape": [3, 3, 256, 256], "dtype": "float32"}, {"name": "res4c_branch2b/bias", "shape": [256], "dtype": "float32"}], "paths": ["group87-shard1of1"]}, {"weights": [{"name": "res4c_branch2c/kernel", "shape": [1, 1, 256, 1024], "dtype": "float32"}, {"name": "res4c_branch2c/bias", "shape": [1024], "dtype": "float32"}], "paths": ["group88-shard1of1"]}, {"weights": [{"name": "res4d_branch2a/kernel", "shape": [1, 1, 1024, 256], "dtype": "float32"}, {"name": "res4d_branch2a/bias", "shape": [256], "dtype": "float32"}], "paths": ["group89-shard1of1"]}, {"weights": [{"name": "res4d_branch2b/kernel", "shape": [3, 3, 256, 256], "dtype": "float32"}, {"name": "res4d_branch2b/bias", "shape": [256], "dtype": "float32"}], "paths": ["group90-shard1of1"]}, {"weights": [{"name": "res4d_branch2c/kernel", "shape": [1, 1, 256, 1024], "dtype": "float32"}, {"name": "res4d_branch2c/bias", "shape": [1024], "dtype": "float32"}], "paths": ["group91-shard1of1"]}, {"weights": [{"name": "res4e_branch2a/kernel", "shape": [1, 1, 1024, 256], "dtype": "float32"}, {"name": "res4e_branch2a/bias", "shape": [256], "dtype": "float32"}], "paths": ["group92-shard1of1"]}, {"weights": [{"name": "res4e_branch2b/kernel", "shape": [3, 3, 256, 256], "dtype": "float32"}, {"name": "res4e_branch2b/bias", "shape": [256], "dtype": "float32"}], "paths": ["group93-shard1of1"]}, {"weights": [{"name": "res4e_branch2c/kernel", "shape": [1, 1, 256, 1024], "dtype": "float32"}, {"name": "res4e_branch2c/bias", "shape": [1024], "dtype": "float32"}], "paths": ["group94-shard1of1"]}, {"weights": [{"name": "res4f_branch2a/kernel", "shape": [1, 1, 1024, 256], "dtype": "float32"}, {"name": "res4f_branch2a/bias", "shape": [256], "dtype": "float32"}], "paths": ["group95-shard1of1"]}, {"weights": [{"name": "res4f_branch2b/kernel", "shape": [3, 3, 256, 256], "dtype": "float32"}, {"name": "res4f_branch2b/bias", "shape": [256], "dtype": "float32"}], "paths": ["group96-shard1of1"]}, {"weights": [{"name": "res4f_branch2c/kernel", "shape": [1, 1, 256, 1024], "dtype": "float32"}, {"name": "res4f_branch2c/bias", "shape": [1024], "dtype": "float32"}], "paths": ["group97-shard1of1"]}, {"weights": [{"name": "res5a_branch1/kernel", "shape": [1, 1, 1024, 2048], "dtype": "float32"}, {"name": "res5a_branch1/bias", "shape": [2048], "dtype": "float32"}], "paths": ["group98-shard1of3", "group98-shard2of3", "group98-shard3of3"]}, {"weights": [{"name": "res5a_branch2a/kernel", "shape": [1, 1, 1024, 512], "dtype": "float32"}, {"name": "res5a_branch2a/bias", "shape": [512], "dtype": "float32"}], "paths": ["group99-shard1of1"]}, {"weights": [{"name": "res5a_branch2b/kernel", "shape": [3, 3, 512, 512], "dtype": "float32"}, {"name": "res5a_branch2b/bias", "shape": [512], "dtype": "float32"}], "paths": ["group100-shard1of3", "group100-shard2of3", "group100-shard3of3"]}, {"weights": [{"name": "res5a_branch2c/kernel", "shape": [1, 1, 512, 2048], "dtype": "float32"}, {"name": "res5a_branch2c/bias", "shape": [2048], "dtype": "float32"}], "paths": ["group101-shard1of2", "group101-shard2of2"]}, {"weights": [{"name": "res5b_branch2a/kernel", "shape": [1, 1, 2048, 512], "dtype": "float32"}, {"name": "res5b_branch2a/bias", "shape": [512], "dtype": "float32"}], "paths": ["group102-shard1of2", "group102-shard2of2"]}, {"weights": [{"name": "res5b_branch2b/kernel", "shape": [3, 3, 512, 512], "dtype": "float32"}, {"name": "res5b_branch2b/bias", "shape": [512], "dtype": "float32"}], "paths": ["group103-shard1of3", "group103-shard2of3", "group103-shard3of3"]}, {"weights": [{"name": "res5b_branch2c/kernel", "shape": [1, 1, 512, 2048], "dtype": "float32"}, {"name": "res5b_branch2c/bias", "shape": [2048], "dtype": "float32"}], "paths": ["group104-shard1of2", "group104-shard2of2"]}, {"weights": [{"name": "res5c_branch2a/kernel", "shape": [1, 1, 2048, 512], "dtype": "float32"}, {"name": "res5c_branch2a/bias", "shape": [512], "dtype": "float32"}], "paths": ["group105-shard1of2", "group105-shard2of2"]}, {"weights": [{"name": "res5c_branch2b/kernel", "shape": [3, 3, 512, 512], "dtype": "float32"}, {"name": "res5c_branch2b/bias", "shape": [512], "dtype": "float32"}], "paths": ["group106-shard1of3", "group106-shard2of3", "group106-shard3of3"]}, {"weights": [{"name": "res5c_branch2c/kernel", "shape": [1, 1, 512, 2048], "dtype": "float32"}, {"name": "res5c_branch2c/bias", "shape": [2048], "dtype": "float32"}], "paths": ["group107-shard1of2", "group107-shard2of2"]}]}